skill_net-GAT-8-0.825283662217596-0.7717135899517238-0.3911440372467041.pth (torch, 331823 bytes, 18 tensors)

pre_embs.weight f4 [110, 128]
-0.2949296 0.37401697 0.8728251 0.7844247 0.32553747 -0.8287211 1.2647079 -0.9138798
0.68804395 0.6385561 -1.4518515 -0.34082258 0.057309017 -0.8031183 1.2858429 -1.3925335
-0.24931937 0.3071904 -0.5062266 0.43091923 -0.79443955 0.50521255 -0.3546733 0.26548833
-1.7094771 -0.6530526 -0.47303522 0.61108 -1.7962235 0.03370338 1.2538984 1.6249926
1.1217601 0.6906451 -0.884318 -1.3816478 1.5307956 -0.26599684 0.23060326 -1.403824
-1.6786084 0.3821192 -1.2290674 -0.3242027 0.08803717 -1.07473 0.5578218 1.4266442
-1.1896777 0.36972383 0.24743308 -0.74990386 0.25535604 0.05201317 -1.0616219 -0.9776437
-1.5722232 -0.1870796 -0.74394107 -2.1786165 0.56798863 0.22851884 0.7798455 -1.6320975
1.3258955 0.5875726 0.6067765 0.9154718 -0.2519985 0.3988299 -0.20633309 0.59348005
0.6438031 0.46480453 -0.69233656 0.33922377 -0.16993251 -0.3565605 -0.25338948 2.5541065
-1.8627722 0.21108226 0.9452696 -0.54245275 0.027407035 0.05227039 -0.5607065 0.38450238
-0.8426047 -0.5332792 -1.9015205 1.2275754 0.9971186 1.2434368 0.51794463 0.35641733
0.76797533 -1.3015546 1.127238 0.33971572 -0.1800705 0.5184463 0.89835113 0.6845287
-0.9122365 -0.50258833 -1.189625 0.43483877 -0.7705469 1.179752 -0.40743935 -1.7708265
-0.5819027 0.42384243 0.3311949 0.42827144 1.8780918 0.056871697 1.3748702 -1.4025164
0.7128517 0.14656153 -0.02820495 -0.1169437 1.2186973 -2.328187 0.46944907 -0.35802808
0.37718758 -2.3116632 -0.02544915 3.066532 0.22901207 1.2168142 0.42681453 0.2995092
-1.0853233 -0.7370386 0.6570674 0.65702313 -0.77150613 0.13442683 -0.42124808 -0.768193
0.80195254 -2.4803343 3.0473135 -0.067870766 -1.2621408 -0.14903732 -0.37491554 -3.1788387
0.49692258 0.73732823 0.96022207 -1.0460119 0.84886193 0.6577318 1.850241 -0.41344276
-0.22542527 -1.708751 -0.59683156 0.16446768 0.40835392 1.8629398 0.1616923 1.7485666
-0.86588687 -0.49622524 0.12791547 -0.29176372 -0.75943196 1.4173864 -1.3551686 1.0136559
1.40408 -0.5428524 0.98989207 1.0048648 -0.13361181 -0.24632494 0.33404014 1.0123522
0.3453441 1.4737387 -1.9103857 -1.1382383 -1.3635148 -0.42997363 -0.25123778 0.75462955
-0.48759684 2.112155 0.37860397 -0.14565468 -0.14248832 0.9191586 0.09370396 -0.77256894
-0.79424334 0.3779433 -1.4305469 2.1006343 2.017686 -0.6384304 -1.2571093 -0.7103104
-0.053958576 0.044513203 -0.6804128 1.5612485 -0.89518327 -1.0558461 -0.34847885 -0.75165623
-0.091953784 0.77119195 0.765651 0.9649271 -1.5337126 -0.5073313 -0.7028388 0.9347588
0.3611201 0.37590107 -0.95894194 -0.81339353 1.4387116 -1.6517408 -0.39961758 -1.3254913
-0.40730247 -0.24859162 0.8155767 1.855427 0.44018036 -0.9801566 0.38233718 0.2874843
1.2874289 -0.091126874 -0.855095 0.75172627 -0.45959368 -2.2628336 0.638909 0.12094521
0.58981687 0.1338348 0.36731908 0.15878329 -1.7276653 -1.3211335 -0.7829259 1.386218
00000000: 0301 97be 277f bf3e 7771 5f3f 0fd0 483f
00000010: d9ac a63e 1127 54bf f3e1 a13f 07f4 69bf
00000020: a623 303f 6a78 233f 45d6 b9bf 4c80 aebe
00000030: dcbc 6a3d 2999 4dbf 8096 a43f 8a3e b2bf
00000040: 944d 7fbe 0f48 9d3e 1198 01bf 72a1 dc3e
00000050: 6460 4bbf 9c55 013f bd97 b5be 16ee 873e
00000060: 25d0 dabf 752e 27bf ac31 f2be bd6f 1c3f
00000070: a7ea e5bf 8e0c 0a3d be7f a03f c2ff cf3f
00000080: d695 8f3f 1ece 303f aa62 62bf d6d9 b0bf
00000090: 1cf1 c33f bd30 88be 4323 6c3e 81b0 b3bf
000000a0: a4dc d6bf 21a5 c33e 1552 9dbf e5fd a5be
000000b0: d54c b43d c190 89bf 69cd 0e3f 479c b63f
000000c0: 5c47 98bf 714c bd3e 195f 7d3e b3f9 3fbf
000000d0: 07be 823e c30b 553d 3ae3 87bf dc46 7abf
000000e0: 9c3e c9bf cb91 3fbe ec72 3ebf 746e 0bc0
000000f0: b467 113f d800 6a3e f4a3 473f 92e8 d0bf
00000100: f2b6 a93f 286b 163f b455 1b3f 5c5c 6a3f
00000110: f305 81be 6f33 cc3e fb48 53be 4fee 173f
00000120: 48d0 243f dcfa ed3e f83c 31bf bdae ad3e
00000130: ca02 2ebe 198f b6be 44bc 81be 7b76 2340
00000140: 526f eebf f325 583e 30fd 713f 2fde 0abf
00000150: b884 e03c 7a19 563d 768a 0fbf 7fdd c43e
00000160: f1b4 57bf fc84 08bf 0665 f3bf 3121 9d3f
00000170: 2a43 7f3f f028 9f3f 0598 043f 557c b63e
00000180: 089a 443f 5799 a6bf 5649 903f 38ef ad3e
00000190: 6764 38be e6b8 043f 57fa 653f 463d 2f3f
000001a0: 5588 69bf a1a9 00bf a245 98bf 30a3 de3e
000001b0: 9042 45bf 1d02 973f e49b d0be 71aa e2bf
000001c0: 93f7 14bf e001 d93e 6192 a93e 6546 db3e
000001d0: 5065 f03f 4cf2 683d bffb af3f a885 b3bf
000001e0: 737d 363f 3a14 163e 110e e7bc 2e80 efbd
000001f0: 46fe 9b3f 0401 15c0 a15b f03e 754f b7be
00000200: bb1e c13e 4af2 13c0 bc7a d0bc 0f42 4440
00000210: 2482 6a3e 91c0 9b3f 6f87 da3e 4559 993e
00000220: e0eb 8abf 90ae 3cbf 9235 283f ab32 283f
00000230: 6d81 45bf 30a7 093e d4ad d7be 4ca8 44bf
00000240: c34c 4d3f ccbd 1ec0 2f07 4340 d4ff 8abd
00000250: d48d a1bf 3d9d 18be eef4 bfbe 1872 4bc0
00000260: a36c fe3e 8bc1 3c3f 1dd1 753f b8e3 85bf
00000270: 044f 593f 1c61 283f b2d4 ec3f c5ae d3be
00000280: e2d5 66be 5ab8 dabf f4c9 18bf 376a 283e
00000290: c413 d13e d074 ee3f ab92 253e 08d1 df3f
000002a0: c3aa 5dbf 3c11 febe 46fc 023e 0e62 95be
000002b0: 226a 42bf eb6c b53f 2a76 adbf 7abf 813f
000002c0: e5b8 b33f 60f8 0abf 9169 7d3f 699f 803f
000002d0: 89d1 08be 9b3c 7cbe 4f07 ab3e c294 813f
000002e0: f1d0 b03e 78a3 bc3f 8587 f4bf cbb1 91bf
000002f0: a787 aebf 8125 dcbe 3da2 80be 672f 413f
00000300: 4ba6 f9be 8c2d 0740 61d8 c13e 8026 15be
00000310: 75e8 11be fa4d 6b3f dde7 bf3d 14c7 45bf
00000320: 8853 4bbf c981 c13e 291c b7bf cb70 0640
00000330: c421 0140 2d70 23bf f5e8 a0bf e7d6 35bf
00000340: ab03 5dbd 7a53 363d 892f 2ebf fed6 c73f
00000350: bb2a 65bf f725 87bf d26b b2be 8b6c 40bf
00000360: 4452 bcbd d66c 453f b401 443f 7605 773f
00000370: b250 c4bf 77e0 01bf 3eed 33bf 5a4c 6f3f
00000380: bce4 b83e 1b76 c03e 387d 75bf 8f3a 50bf
00000390: b427 b83f 3e6c d3bf ad9a ccbe b3a9 a9bf
000003a0: f389 d0be cd8e 7ebe a2c9 503f a27e ed3f
000003b0: 525f e13e 8beb 7abf b3c1 c33e 2431 933e
000003c0: 78ca a43f baa0 babd 82e7 5abf 2271 403f
000003d0: dd4f ebbe 44d2 10c0 8a8f 233f 1fb2 f73d
000003e0: 3dfe 163f fd0b 093e 3f11 bc3e 1698 223e
000003f0: 2324 ddbf e71a a9bf d56d 48bf 976f b13f

conv1.att_src f4 [1, 1, 128]
0.18070495 0.21652742 0.004144835 -0.17566606 0.094469756 -0.058098063 -0.18218237 -0.109520175
0.1661966 -0.18748125 0.09328441 -0.12642995 0.19840062 -0.079679236 -0.20242326 0.048200224
-0.17942405 -0.07194075 0.030774819 0.09313254 -0.15825754 0.06085487 0.0022366364 0.15798327
0.04674063 0.18677849 -0.1852005 -0.10794533 -0.21333443 -0.019283311 0.20169055 0.0894616
-0.19807328 -0.005928771 0.01816391 0.17132549 -0.07746536 -0.014175382 -0.017549163 -0.18109769
-0.058280658 -0.20013447 -0.17184883 0.054315068 -0.19182786 -0.00045040576 0.1726822 0.033051
0.044663128 0.17218061 0.09934174 -0.02466004 -0.06968715 -0.1659182 -0.17416102 -0.14541085
-0.19964573 0.20389405 0.026182156 -0.15774645 -0.21037155 0.17085966 0.12561673 0.101903535
-0.19373256 -0.16963685 0.1681251 0.12606001 0.14589173 0.046970423 -0.18213949 -0.01224503
-0.02754901 0.11620317 0.15898459 -0.05533177 0.024584442 0.11056763 0.103577875 0.08049361
-0.10742058 -0.15257084 -0.2134445 0.1660962 -0.07683767 0.13806115 0.062362 0.16151163
-0.19168745 0.17867409 0.15144126 -0.09459422 -0.19012986 -0.12272086 -0.04456768 -0.17699613
-0.109861106 0.21197395 0.19396384 0.15282337 -0.056090232 0.06735014 -0.07153061 0.20814082
0.092563145 0.15032846 -0.095745735 0.029796876 -0.18364476 -0.20547426 0.09347889 -0.101779215
0.18775593 0.05114877 -0.1334067 0.105286054 0.0964885 -0.09017237 -0.12475182 0.0065196995
-0.18456133 0.084477834 0.068803 -0.07626789 -0.19820704 0.05962881 0.119607896 -0.12267061
00000000: b80a 393e 5db9 5d3e 65d1 873b cee1 33be
00000010: 5c79 c13d 3cf8 6dbd 048e 3abe 1d4c e0bd
00000020: 712f 2a3e 16fb 3fbe e60b bf3d da76 01be
00000030: 8829 4b3e de2e a3bd 0b48 4fbe 996d 453d
00000040: f0ba 37be ac55 93bd 791b fc3c 46bc be3d
00000050: 440e 22be f542 793d 8894 123b 5ec6 213e
00000060: 1a73 3f3d dc42 3f3e 33a5 3dbe 7112 ddbd
00000070: 5774 5abe 09f8 9dbc f887 4e3e a537 b73d
00000080: b9d3 4abe 2346 c2bb 7bcc 943c f36f 2f3e
00000090: 29a6 9ebd dd3f 68bc 43c3 8fbc ac71 39be
000000a0: b3b7 6ebd 0df0 4cbe 24f9 2fbe 7a79 5e3d
000000b0: 866e 44be 7024 ecb9 9ad3 303e 7c60 073d
000000c0: aff0 363d 1d50 303e af73 cb3d da03 cabc
000000d0: 23b8 8ebd 76e6 29be 4457 32be 95e6 14be
000000e0: ee6f 4cbe 9ac9 503e f67b d63c 4988 21be
000000f0: a46b 57be d6f5 2e3e aca1 003e cdb2 d03d
00000100: d461 46be 48b5 2dbe fc28 2c3e e015 013e
00000110: a464 153e 0f64 403d c682 3abe 619f 48bc
00000120: 76ae e1bc edfb ed3d dbcc 223e 91a3 62bd
00000130: 5065 c93c 4871 e23d a320 d43d d5d9 a43d
00000140: 52ff dbbd 883b 1cbe 3291 5abe 1f15 2a3e
00000150: 115d 9dbd e75f 0d3e 4c6f 7f3d 4e63 253e
00000160: b749 44be 57f6 363e 6b13 1b3e 9dba c1bd
00000170: 67b1 42be 1355 fbbd 9a8c 36bd 793e 35be
00000180: dcfe e0bd b30f 593e 759e 463e bb7d 1c3e
00000190: dfbe 65bd dfee 893d a47e 92bd de22 553e
000001a0: bf91 bd3d b4ef 193e 5716 c4bd 9418 f43c
000001b0: 5f0d 3cbe d867 52be dc71 bf3d 9f71 d0bd
000001c0: 1743 403e 5f81 513d c49b 08be 37a0 d73d
000001d0: c39b c53d 4bac b8bd e27d ffbd 34a3 d53b
000001e0: a5fd 3cbe b702 ad3d 96e8 8c3d 5732 9cbd
000001f0: c9f6 4abe 573d 743d fcf4 f43d bb3a fbbd

conv1.att_dst f4 [1, 1, 128]
0.20075198 -0.0040948167 0.13294517 -0.15247259 0.056971632 0.056496855 0.01992826 -0.0024287319
-0.12714833 -0.0020408763 0.0018900745 -0.08500795 0.022815725 0.13088493 -0.07801896 0.048605412
-0.1675724 -0.039082 -0.067524604 -0.032726917 -0.1407736 0.17648123 0.025511134 -0.13806574
-0.11536356 -0.19122143 0.08398607 -0.14252786 -0.09268491 0.0038692134 -0.16408266 -0.12728642
0.15088308 0.13881955 -0.03088325 0.057589628 -0.017571624 0.19189416 -0.1755412 -0.18418707
0.1438766 -0.08840259 0.038883973 0.009771451 -0.1970362 -0.16121176 -0.07295676 0.033550356
0.098823525 -0.010701167 -0.20901029 0.108567245 0.13749482 -0.1202495 0.11448545 0.07931165
0.057524655 0.13110654 -0.012720885 -0.12681216 -0.09134605 0.036540642 -0.047090452 0.20044655
0.031040838 -0.10346 -0.15688246 -0.1077447 -0.20604979 -0.060067993 -0.18967386 0.039809622
0.07258924 -0.1286509 -0.1358304 -0.20360765 -0.038596272 0.079859816 -0.21699545 -0.09510967
-0.17537121 -0.13656913 0.20814838 0.1516816 0.03542279 0.072047845 0.1280911 -0.17898121
0.18134381 0.13920493 -0.16692473 0.20579883 0.1612844 0.2000689 -0.11091874 -0.07041204
-0.13930646 0.15186724 0.14854077 -0.15602446 0.06838067 -0.14472993 0.009374201 0.0681385
0.20492063 0.06905212 -0.014517286 0.17668886 -0.025358325 -0.13780265 0.11531952 0.08362962
-0.09602632 -0.21721508 0.1696596 0.16165426 0.049743675 0.116252065 -0.0037551124 -0.10167806
0.11262071 0.10571431 0.10845354 -0.05327612 0.0542927 0.042232472 -0.11097931 0.16756155
00000000: ed91 4d3e d02d 86bb c722 083e c621 1cbe
00000010: 165b 693d 3f69 673d 9740 a33c 5c2b 1fbb
00000020: 2c33 02be 39c0 05bb 60bc f73a a618 aebd
00000030: 0be8 ba3c b306 063e 68c8 9fbd 7816 473d
00000040: 1998 2bbe 7214 20bd 574a 8abd a90c 06bd
00000050: f426 10be 7fb7 343e bafc d03c 1b61 0dbe
00000060: bb43 ecbd 8dcf 43be e300 ac3d d3f2 11be
00000070: 96d1 bdbd a192 7d3b 4905 28be 5f57 02be
00000080: 1881 1a3e b626 0e3e dffe fcbc 1ae3 6b3d
00000090: 5ef2 8fbc e77f 443e 13c1 33be 899b 3cbe
000000a0: 6354 133e 6b0c b5bd cd44 1f3d 7018 203c
000000b0: dcc3 49be b214 25be 5b6a 95bd 196c 093d
000000c0: fd63 ca3d f353 2fbc cb06 56be 8158 de3d
000000d0: 71cb 0c3e 5f45 f6bd 5977 ea3d 256e a23d
000000e0: f99e 6b3d cb40 063e 426b 50bc 0cdb 01be
000000f0: a313 bbbd a4ab 153d ebe1 40bd dc41 4d3e
00000100: 5b49 fe3c d6e2 d3bd cca5 20be 41a9 dcbd
00000110: b7fe 52be db09 76bd dd39 42be 6a0f 233d
00000120: aba9 943d 10bd 03be 2017 0bbe 867e 50be
00000130: 2017 1ebd 8b8d a33d 0e34 5ebe dcc8 c2bd
00000140: 8394 33be c7d8 0bbe d924 553e 6c52 1b3e
00000150: 7d17 113d d28d 933d 502a 033e da46 37be
00000160: 31b2 393e bd8b 0e3e 51ee 2abe eebc 523e
00000170: bd27 253e ddde 4c3e 5d29 e3bd 3034 90bd
00000180: 5aa6 0ebe 1683 1b3e 121b 183e e0c4 1fbe
00000190: 2a0b 8c3d 1534 14be 4096 193c 338c 8b3d
000001a0: b7d6 513e 336b 8d3d e9d9 6dbc eded 343e
000001b0: 43bc cfbc 231c 0dbe a42c ec3d 0246 ab3d
000001c0: 72a9 c4bd a16d 5ebe 3fbb 2d3e b288 253e
000001d0: 06c0 4b3d 9015 ee3d 5518 76bb 963c d0bd
000001e0: b0a5 e63d bf80 d83d e41c de3d 1038 5abd
000001f0: 0662 5e3d f5fb 2c3d 1f49 e3bd 4195 2b3e

conv1.bias f4 [128]
-0.0046104114 1.9294937e-05 -0.004548057 0.0031852312 -0.0050501204 -0.0005530592 -0.0024314907 0.00050336117
-0.002178734 -0.005669431 -0.0074716206 0.0033829473 -0.0052161613 -0.0053436942 -0.006305252 -0.0076527786
-0.002726791 0.0061476864 -0.0022914174 -0.00079061347 -0.0059860814 -0.008130327 -0.0027886461 -0.0011094685
0.00078096666 -0.008509845 0.0045093745 -0.002936569 0.0021029797 0.0023908773 -0.0001700624 -0.0041019027
-0.013653791 0.005714309 0.0040862015 -0.0010131745 -0.0009619277 -0.009869835 -0.0048294486 -0.0015026277
0.004266323 -0.0038256275 -0.0059499783 0.00390921 -0.00062336156 -0.007860271 -0.0074078273 -0.0011332469
0.009081921 0.0056099603 -0.0014567141 -0.0041090976 -0.0021793863 -0.006213386 -0.0048627043 -0.011664929
0.0038066541 -0.0089276945 -0.009053446 -0.0014957609 0.004808042 0.0013768254 -0.008770289 0.0022710653
0.00027838568 -0.0038152717 0.0025124417 0.002350859 -0.00033755583 -0.00094202923 -0.011963297 -0.0057196324
-0.0059977793 -0.0021174024 0.0030033747 0.003296709 -0.0074679814 0.001000216 -0.005442433 -0.0028664316
0.00030556452 -0.0032139362 -0.0058752727 0.006110314 -0.004259844 -0.00063884835 -0.0021547622 0.006364702
0.0017897742 -0.009186231 -0.0081160115 -0.006532766 -0.006248683 -0.0060178256 -0.0062811794 0.007787418
0.0023611945 -0.0004927159 -0.00885679 -0.0023186107 0.010051959 -0.007816639 -0.006779261 -0.009111888
0.00014905394 -0.011195799 0.003024694 0.0026933122 0.0014207159 0.0013151065 -0.005172353 -0.009659718
0.00070135127 0.0032505537 0.0039281747 -0.003941127 0.0102129495 0.0039127404 -0.006110816 -0.011046511
0.004229135 -0.00199825 -0.0023970543 0.0005375841 0.0038694956 -0.0037933162 -0.0070753274 -0.002379428
00000000: ef12 97bb 90db a137 de07 95bb 50bf 503b
00000010: 7b7b a5bb 2dfb 10ba a559 1fbb fff3 033a
00000020: 17c9 0ebb a2c6 b9bb 7fd4 f4bb 70b4 5d3b
00000030: 55ec aabb 281a afbb 4a9c cebb 29c4 fabb
00000040: f6b3 32bb 8872 c93b 9b2b 16bb 2c41 4fba
00000050: e426 c4bb 1035 05bc b8c1 36bb 966b 91ba
00000060: c9b9 4c3a e06c 0bbc 60c3 933b 7473 40bb
00000070: 25d2 093b 44b0 1c3b c752 32b9 4169 86bb
00000080: 26b4 5fbc 193f bb3b 8be5 853b 7fcc 84ba
00000090: e029 7cba 17b5 21bc 5a40 9ebb d2f3 c4ba
000000a0: 83cc 8b3b 61b7 7abb 09f8 c2bb d518 803b
000000b0: 1669 23ba 5ec8 00bc 5cbd f2bb 7589 94ba
000000c0: 56cc 143c c2d3 b73b 37ef beba 9ca5 86bb
000000d0: 09d4 0ebb a999 cbbb 5257 9fbb 421e 3fbc
000000e0: 0f79 793b 7745 12bc e854 14bc 680d c4ba
000000f0: c88c 9d3b 9876 b43a 42b1 0fbc 27d6 143b
00000100: 4bf4 9139 a309 7abb c7a7 243b df10 1a3b
00000110: faf9 b0b9 83f2 76ba b401 44bc c16b bbbb
00000120: 0589 c4bb 1ec4 0abb 44d4 443b 990d 583b
00000130: f8b5 f4bb ae19 833a 7056 b2bb beda 3bbb
00000140: 2d34 a039 e7a0 52bb 5c85 c0bb 0739 c83b
00000150: 2996 8bbb 6378 27ba e936 0dbb fd8e d03b
00000160: db96 ea3a d881 16bc 05f9 04bc d010 d6bb
00000170: c1c1 ccbb 2e31 c5bb 5ad2 cdbb 992d ff3b
00000180: 45be 1a3b 9b29 01ba 121c 11bc d5f3 17bb
00000190: f9b0 243c 5c11 00bc 9024 debb 074a 15bc
000001a0: 5d4b 1c39 966e 37bc f239 463b 4882 303b
000001b0: 5137 ba3a a75f ac3a d77c a9bb cb43 1ebc
000001c0: e3da 373a 3e07 553b ebb7 803b 9224 81bb
000001d0: 3754 273c 7236 803b 3d3d c8bb 6dfc 34bc
000001e0: 8e94 8a3b 12f5 02bb e617 1dbb a9ec 0c3a
000001f0: 5d97 7d3b 4999 78bb 26d8 e7bb 2df0 1bbb

conv1.lin_src.weight f4 [128, 128]
0.14628929 -0.11689651 -0.08225221 0.08658279 -0.11100155 -0.018797332 -0.06344803 -0.07148533
0.094014615 0.09268169 -0.006815301 0.093663044 -0.0658899 -0.025815208 -0.052160755 -0.08601594
0.020986728 0.11830903 0.027487805 0.15353514 0.029104827 0.063834935 0.005805777 0.0028425488
-0.13917316 -0.06430598 0.029478064 0.059474017 0.053494833 -0.048434593 0.083943814 -0.13814446
-0.066823155 0.054429784 0.0017127764 -0.009193169 0.086853966 0.066147946 -0.054295644 0.07655343
0.057868324 -0.11933864 0.09675445 0.095675364 -0.04885714 -0.021166595 0.09598412 -0.1450354
-0.035716318 -0.01807333 -0.031839397 0.037509773 -0.0379335 -0.121670276 -0.05556125 0.04942251
0.14095585 0.04246789 0.11709677 0.012154246 0.039706994 -0.10904739 -0.06509461 0.105349675
0.100521035 0.10582832 -0.025088774 0.073645845 -0.048494775 -0.070824794 -0.07813517 0.12578025
0.08277447 -0.03337403 -0.025473481 -0.013068515 0.1342106 -0.14118436 0.12944187 0.11244873
0.018476482 -0.085273795 -0.106499776 0.07306345 -0.075184986 0.10256888 0.14392596 0.0077044875
0.10752539 0.009554523 0.046888463 -0.08002754 -0.11483897 -0.1509604 -0.0006783549 0.15158516
-0.010851351 0.07115113 0.0339972 -0.08893478 0.07935983 0.114279054 -0.07146328 -0.08673697
0.04571244 -0.007434146 0.05837802 0.12463 -0.112130895 -0.03230401 -0.13542716 0.004298078
0.119979225 -0.11383826 -0.0040259785 -0.060062278 -0.04920664 -0.041860044 0.05281937 -0.07065646
-0.055708926 0.111174345 0.030635098 0.15201008 -0.0635184 -0.0969492 0.056205746 0.0029303327
-0.14541313 0.03568408 0.1430708 -0.058368452 0.033583935 -0.036879074 -0.08320627 -0.025918424
0.11238928 -0.03222934 0.086655766 0.1241248 -0.15005493 -0.09004264 0.06384923 0.061066072
-0.040401347 -0.14886634 0.11345872 0.02997103 0.07380602 -0.052557178 0.14099105 -0.14147307
-0.13803129 0.14387913 -0.029598398 0.100706205 -0.10545559 -0.038332146 0.095961384 -0.067051224
0.046779834 -0.14653967 0.15073575 0.041463744 -0.11112648 -0.10810346 0.0118467305 0.023276465
0.0895754 0.08846122 0.13979398 0.072650515 -0.039664574 -0.024951441 0.05466654 -0.106979646
0.15518612 0.03206323 -0.023985883 0.014098511 0.02872099 0.16184086 -0.06897032 -0.07916151
0.047063436 -0.00161369 0.13397138 -0.0252157 0.057290655 0.042325985 -0.13813312 -0.046166852
0.08530112 0.07481114 -0.038006764 0.0026068871 0.044980314 -0.12308118 0.020248028 0.1109592
-0.07267174 -0.028354347 -0.007850722 -0.027704593 0.14708586 0.09022837 0.105231255 0.03768425
-0.12294491 -0.015950816 -0.035327964 -0.15048087 -0.013476431 -0.14724575 -0.039605454 0.12358953
0.048581515 -0.057745162 0.1312492 0.045458697 -0.040733233 0.060750745 -0.1563767 -0.082801245
-0.13164991 0.102410465 -0.12525517 -0.03610441 0.016979668 0.015001239 -0.047958594 -0.027409717
-0.05402104 0.05110888 -0.09392581 -0.119405486 -0.0865204 0.14123996 0.03137616 -0.136566
-0.0881208 0.1478975 -0.03651117 -0.12849376 0.09629232 -0.012247092 -0.009827543 0.11577577
-0.10477868 0.02078485 0.12528247 0.041374084 -0.10331285 0.13589004 0.07980358 0.14211525
00000000: dccc 153e 7067 efbd d973 a8bd 5152 b13d
00000010: c854 e3bd ddfc 99bc 0af1 81bd e766 92bd
00000020: bc8a c03d e6cf bd3d e352 dfbb 69d2 bf3d
00000030: 49f1 86bd 6a7a d3bc 84a6 55bd 2029 b0bd
00000040: 5cec ab3c 014c f23d 1b2e e13c 5138 1d3e
00000050: 3f6d ee3c e4bb 823d 633e be3b 0e4a 3a3b
00000060: 6983 0ebe dbb2 83bd fb7b f13c 079b 733d
00000070: 661d 5b3d 5a63 46bd bcea ab3d be75 0dbe
00000080: 94da 88bd c4f1 5e3d 3d7f e03a f29e 16bc
00000090: 7ee0 b13d 9378 873d 1c65 5ebd 0bc8 9c3d
000000a0: 5607 6d3d d167 f4bd 3227 c63d 72f1 c33d
000000b0: 6d1e 48bd 9165 adbc 5393 c43d 2984 14be
000000c0: 464b 12bd 850e 94bc 076a 02bd d9a3 193d
000000d0: 2860 1bbd 442e f9bd 3194 63bd 426f 4a3d
000000e0: bb56 103e cff2 2d3d 6ed0 ef3d 9a22 473c
000000f0: cda3 223d 3d54 dfbd 5350 85bd 92c1 d73d
00000100: f9dd cd3d 85bc d83d f986 cdbc a2d3 963d
00000110: 75a2 46bd 970c 91bd 5505 a0bd 8acc 003e
00000120: a985 a93d 35b3 08bd c3ad d0bc 531d 56bc
00000130: 816e 093e a292 10be 698c 043e 854b e63d
00000140: fe5b 973c 07a4 aebd 8e1c dabd 4aa2 953d
00000150: 96fa 99bd a20f d23d 5461 133e ed75 fc3b
00000160: 4636 dc3d 938a 1c3c 1e0e 403d 7be5 a3bd
00000170: b230 ebbd 5d95 1abe a0d3 31ba 2439 1b3e
00000180: ddc9 31bc afb7 913d a640 0b3d 7023 b6bd
00000190: 6887 a23d 230b ea3d 575b 92bd 27a3 b1bd
000001a0: f83c 3b3d 239a f3bb ca1d 6f3d 033e ff3d
000001b0: e2a4 e5bd 3651 04bd 6bad 0abe e4d6 8c3b
000001c0: abb7 f53d 0924 e9bd 5bec 83bb dd03 76bd
000001d0: e78c 49bd 7075 2bbd 2059 583d 56b4 90bd
000001e0: 0b2f 64bd 60af e33d 75f6 fa3c 88a8 1b3e
000001f0: ef15 82bd 4d8d c6bd ff37 663d d30a 403b
00000200: 2ee7 14be 7829 123d 2781 123e c213 6fbd
00000210: 4f8f 093d 830e 17bd 0d68 aabd e052 d4bc
00000220: 5a2c e63d ea02 04bd 9478 b13d 2535 fe3d
00000230: 00a8 19be 4768 b8bd 63c3 823d 6b20 7a3d
00000240: e27b 25bd 6b70 18be 0c5d e83d ce85 f53c
00000250: 9c27 973d 3246 57bd f55f 103e 51de 10be
00000260: 1358 0dbe 0d55 133e 5778 f2bc 0e3f ce3d
00000270: 1af9 d7bd 2b02 1dbd 6787 c43d 2752 89bd
00000280: 369c 3f3d 7f0e 16be 795a 1a3e e3d5 293d
00000290: 4896 e3bd 5965 ddbd ca18 423c 49ae be3c
000002a0: 4f73 b73d 282b b53d 2726 0f3e cbc9 943d
000002b0: 5277 22bd f766 ccbc 06ea 5f3d 2518 dbbd
000002c0: 1ce9 1e3e bc54 033d 0b7e c4bc 71fd 663c
000002d0: 4848 eb3c 9cb9 253e 5040 8dbd 6e1f a2bd
000002e0: 97c5 403d 7482 d3ba cb2f 093e 2891 cebc
000002f0: 9ba9 6a3d 035e 2d3d c572 0dbe 7419 3dbd
00000300: 5bb2 ae3d 9536 993d fbac 1bbd 4fd8 2a3b
00000310: 473d 383d fc11 fcbd 31df a53c 943e e33d
00000320: ecd4 94bd 6047 e8bc 51a0 00bc bef4 e2bc
00000330: ad9d 163e a7c9 b83d 7c83 d73d cd5a 1a3d
00000340: 8aca fbbd 49ab 82bc 0eb4 10bd a817 1abe
00000350: 40cc 5cbc 97c7 16be 5439 22bd 821c fd3d
00000360: 69fd 463d 3186 6cbd 3166 063e e632 3a3d
00000370: e4d7 26bd c6d5 783d 3721 20be b393 a9bd
00000380: 3ccf 06be 94bc d13d e442 00be 38e2 13bd
00000390: f218 8b3c c2c7 753c 3b70 44bd 588a e0bc
000003a0: 2b45 5dbd 8c57 513d 2d5c c0bd dd8a f4bd
000003b0: 9c31 b1bd 35a1 103e 4a84 003d f5d7 0bbe
000003c0: ae78 b4bd 7172 173e bd8c 15bd de93 03be
000003d0: e834 c53d 07a8 48bc b403 21bc d91b ed3d
000003e0: 3496 d6bd fd44 aa3c 0c4a 003e df77 293d
000003f0: b095 d3bd c226 0b3e 0f70 a33d a986 113e

conv1.lin_dst.weight f4 [128, 128]
0.14628929 -0.11689651 -0.08225221 0.08658279 -0.11100155 -0.018797332 -0.06344803 -0.07148533
0.094014615 0.09268169 -0.006815301 0.093663044 -0.0658899 -0.025815208 -0.052160755 -0.08601594
0.020986728 0.11830903 0.027487805 0.15353514 0.029104827 0.063834935 0.005805777 0.0028425488
-0.13917316 -0.06430598 0.029478064 0.059474017 0.053494833 -0.048434593 0.083943814 -0.13814446
-0.066823155 0.054429784 0.0017127764 -0.009193169 0.086853966 0.066147946 -0.054295644 0.07655343
0.057868324 -0.11933864 0.09675445 0.095675364 -0.04885714 -0.021166595 0.09598412 -0.1450354
-0.035716318 -0.01807333 -0.031839397 0.037509773 -0.0379335 -0.121670276 -0.05556125 0.04942251
0.14095585 0.04246789 0.11709677 0.012154246 0.039706994 -0.10904739 -0.06509461 0.105349675
0.100521035 0.10582832 -0.025088774 0.073645845 -0.048494775 -0.070824794 -0.07813517 0.12578025
0.08277447 -0.03337403 -0.025473481 -0.013068515 0.1342106 -0.14118436 0.12944187 0.11244873
0.018476482 -0.085273795 -0.106499776 0.07306345 -0.075184986 0.10256888 0.14392596 0.0077044875
0.10752539 0.009554523 0.046888463 -0.08002754 -0.11483897 -0.1509604 -0.0006783549 0.15158516
-0.010851351 0.07115113 0.0339972 -0.08893478 0.07935983 0.114279054 -0.07146328 -0.08673697
0.04571244 -0.007434146 0.05837802 0.12463 -0.112130895 -0.03230401 -0.13542716 0.004298078
0.119979225 -0.11383826 -0.0040259785 -0.060062278 -0.04920664 -0.041860044 0.05281937 -0.07065646
-0.055708926 0.111174345 0.030635098 0.15201008 -0.0635184 -0.0969492 0.056205746 0.0029303327
-0.14541313 0.03568408 0.1430708 -0.058368452 0.033583935 -0.036879074 -0.08320627 -0.025918424
0.11238928 -0.03222934 0.086655766 0.1241248 -0.15005493 -0.09004264 0.06384923 0.061066072
-0.040401347 -0.14886634 0.11345872 0.02997103 0.07380602 -0.052557178 0.14099105 -0.14147307
-0.13803129 0.14387913 -0.029598398 0.100706205 -0.10545559 -0.038332146 0.095961384 -0.067051224
0.046779834 -0.14653967 0.15073575 0.041463744 -0.11112648 -0.10810346 0.0118467305 0.023276465
0.0895754 0.08846122 0.13979398 0.072650515 -0.039664574 -0.024951441 0.05466654 -0.106979646
0.15518612 0.03206323 -0.023985883 0.014098511 0.02872099 0.16184086 -0.06897032 -0.07916151
0.047063436 -0.00161369 0.13397138 -0.0252157 0.057290655 0.042325985 -0.13813312 -0.046166852
0.08530112 0.07481114 -0.038006764 0.0026068871 0.044980314 -0.12308118 0.020248028 0.1109592
-0.07267174 -0.028354347 -0.007850722 -0.027704593 0.14708586 0.09022837 0.105231255 0.03768425
-0.12294491 -0.015950816 -0.035327964 -0.15048087 -0.013476431 -0.14724575 -0.039605454 0.12358953
0.048581515 -0.057745162 0.1312492 0.045458697 -0.040733233 0.060750745 -0.1563767 -0.082801245
-0.13164991 0.102410465 -0.12525517 -0.03610441 0.016979668 0.015001239 -0.047958594 -0.027409717
-0.05402104 0.05110888 -0.09392581 -0.119405486 -0.0865204 0.14123996 0.03137616 -0.136566
-0.0881208 0.1478975 -0.03651117 -0.12849376 0.09629232 -0.012247092 -0.009827543 0.11577577
-0.10477868 0.02078485 0.12528247 0.041374084 -0.10331285 0.13589004 0.07980358 0.14211525
00000000: dccc 153e 7067 efbd d973 a8bd 5152 b13d
00000010: c854 e3bd ddfc 99bc 0af1 81bd e766 92bd
00000020: bc8a c03d e6cf bd3d e352 dfbb 69d2 bf3d
00000030: 49f1 86bd 6a7a d3bc 84a6 55bd 2029 b0bd
00000040: 5cec ab3c 014c f23d 1b2e e13c 5138 1d3e
00000050: 3f6d ee3c e4bb 823d 633e be3b 0e4a 3a3b
00000060: 6983 0ebe dbb2 83bd fb7b f13c 079b 733d
00000070: 661d 5b3d 5a63 46bd bcea ab3d be75 0dbe
00000080: 94da 88bd c4f1 5e3d 3d7f e03a f29e 16bc
00000090: 7ee0 b13d 9378 873d 1c65 5ebd 0bc8 9c3d
000000a0: 5607 6d3d d167 f4bd 3227 c63d 72f1 c33d
000000b0: 6d1e 48bd 9165 adbc 5393 c43d 2984 14be
000000c0: 464b 12bd 850e 94bc 076a 02bd d9a3 193d
000000d0: 2860 1bbd 442e f9bd 3194 63bd 426f 4a3d
000000e0: bb56 103e cff2 2d3d 6ed0 ef3d 9a22 473c
000000f0: cda3 223d 3d54 dfbd 5350 85bd 92c1 d73d
00000100: f9dd cd3d 85bc d83d f986 cdbc a2d3 963d
00000110: 75a2 46bd 970c 91bd 5505 a0bd 8acc 003e
00000120: a985 a93d 35b3 08bd c3ad d0bc 531d 56bc
00000130: 816e 093e a292 10be 698c 043e 854b e63d
00000140: fe5b 973c 07a4 aebd 8e1c dabd 4aa2 953d
00000150: 96fa 99bd a20f d23d 5461 133e ed75 fc3b
00000160: 4636 dc3d 938a 1c3c 1e0e 403d 7be5 a3bd
00000170: b230 ebbd 5d95 1abe a0d3 31ba 2439 1b3e
00000180: ddc9 31bc afb7 913d a640 0b3d 7023 b6bd
00000190: 6887 a23d 230b ea3d 575b 92bd 27a3 b1bd
000001a0: f83c 3b3d 239a f3bb ca1d 6f3d 033e ff3d
000001b0: e2a4 e5bd 3651 04bd 6bad 0abe e4d6 8c3b
000001c0: abb7 f53d 0924 e9bd 5bec 83bb dd03 76bd
000001d0: e78c 49bd 7075 2bbd 2059 583d 56b4 90bd
000001e0: 0b2f 64bd 60af e33d 75f6 fa3c 88a8 1b3e
000001f0: ef15 82bd 4d8d c6bd ff37 663d d30a 403b
00000200: 2ee7 14be 7829 123d 2781 123e c213 6fbd
00000210: 4f8f 093d 830e 17bd 0d68 aabd e052 d4bc
00000220: 5a2c e63d ea02 04bd 9478 b13d 2535 fe3d
00000230: 00a8 19be 4768 b8bd 63c3 823d 6b20 7a3d
00000240: e27b 25bd 6b70 18be 0c5d e83d ce85 f53c
00000250: 9c27 973d 3246 57bd f55f 103e 51de 10be
00000260: 1358 0dbe 0d55 133e 5778 f2bc 0e3f ce3d
00000270: 1af9 d7bd 2b02 1dbd 6787 c43d 2752 89bd
00000280: 369c 3f3d 7f0e 16be 795a 1a3e e3d5 293d
00000290: 4896 e3bd 5965 ddbd ca18 423c 49ae be3c
000002a0: 4f73 b73d 282b b53d 2726 0f3e cbc9 943d
000002b0: 5277 22bd f766 ccbc 06ea 5f3d 2518 dbbd
000002c0: 1ce9 1e3e bc54 033d 0b7e c4bc 71fd 663c
000002d0: 4848 eb3c 9cb9 253e 5040 8dbd 6e1f a2bd
000002e0: 97c5 403d 7482 d3ba cb2f 093e 2891 cebc
000002f0: 9ba9 6a3d 035e 2d3d c572 0dbe 7419 3dbd
00000300: 5bb2 ae3d 9536 993d fbac 1bbd 4fd8 2a3b
00000310: 473d 383d fc11 fcbd 31df a53c 943e e33d
00000320: ecd4 94bd 6047 e8bc 51a0 00bc bef4 e2bc
00000330: ad9d 163e a7c9 b83d 7c83 d73d cd5a 1a3d
00000340: 8aca fbbd 49ab 82bc 0eb4 10bd a817 1abe
00000350: 40cc 5cbc 97c7 16be 5439 22bd 821c fd3d
00000360: 69fd 463d 3186 6cbd 3166 063e e632 3a3d
00000370: e4d7 26bd c6d5 783d 3721 20be b393 a9bd
00000380: 3ccf 06be 94bc d13d e442 00be 38e2 13bd
00000390: f218 8b3c c2c7 753c 3b70 44bd 588a e0bc
000003a0: 2b45 5dbd 8c57 513d 2d5c c0bd dd8a f4bd
000003b0: 9c31 b1bd 35a1 103e 4a84 003d f5d7 0bbe
000003c0: ae78 b4bd 7172 173e bd8c 15bd de93 03be
000003d0: e834 c53d 07a8 48bc b403 21bc d91b ed3d
000003e0: 3496 d6bd fd44 aa3c 0c4a 003e df77 293d
000003f0: b095 d3bd c226 0b3e 0f70 a33d a986 113e

conv2.att_src f4 [1, 1, 128]
-0.13298869 0.18707623 0.12303696 0.08041453 0.13122763 -0.114597425 -0.032674816 -0.0827175
-0.13285965 0.043256793 0.06662224 -0.13319075 0.17921482 0.1137955 0.06971617 0.08182455
-0.12646036 -0.17336209 -0.20753568 -0.14625038 0.18204771 -0.05495684 -0.21884367 0.17605071
-0.21096388 -0.0242908 -0.07153912 0.015220851 -0.09316936 -0.014399029 0.11643957 -0.204201
-0.15018731 -0.07319308 -0.1679755 0.12133107 -0.124552906 0.05272656 -0.029006878 -0.0357273
0.17929444 0.17988166 0.04708905 0.07240946 -0.19239092 -0.20803578 -0.124491915 0.1093411
-0.17472121 -0.20573552 0.00897999 0.03826949 0.044191897 0.11582746 0.029538596 -0.028652301
-0.02733509 0.0690657 -0.18875296 0.2095361 -0.0049587465 -0.16463752 0.14589335 -0.19415037
-0.07011007 -0.0680684 -0.18066293 0.046438467 -0.1359483 0.015388681 -0.087187745 -0.13945271
-0.090862304 -0.044328645 0.15221481 0.1144236 -0.20984301 -0.051820904 -0.116436936 -0.00014192832
0.06392577 0.10201981 0.16228634 -0.16852492 -0.20408718 0.09028406 0.05905126 -0.21589816
-0.16140164 0.06767166 0.18879688 -0.09740309 -0.026127968 -0.013790193 0.14875543 0.03156984
-0.13521728 0.16396756 -0.14668955 -0.1311651 -0.08511681 -0.111008756 -0.0319651 0.09621465
0.04526665 0.014346059 0.023597376 -0.10620748 0.18173514 0.15013918 0.09085428 0.13407075
-0.13474731 0.15115938 -0.19538641 0.14292341 0.1284505 -0.18469664 0.15600173 0.1566272
0.053775493 -0.1903218 -0.14898366 -0.12379149 -0.034182332 -0.09467464 -0.18300065 -0.056513406
00000000: 302e 08be e990 3f3e cdfa fb3d 60b0 a43d
00000010: 8960 063e 0eb2 eabd 07d6 05bd cb67 a9bd
00000020: 5c0c 08be 092e 313d 3e71 883d 2863 08be
00000030: 1784 373e 9d0d e93d 5ac7 8e3d a193 a73d
00000040: d37e 01be d585 31be 3c84 54be a9c2 15be
00000050: b76a 3a3e 6c1a 61bd 8e18 60be a346 343e
00000060: ea06 58be 80fd c6bc 1a83 92bd e060 793c
00000070: 94cf bebd e8e9 6bbc df77 ee3d 111a 51be
00000080: b4ca 19be 41e6 95bd c501 2cbe 6d7c f83d
00000090: 9815 ffbd cef7 573d d59f edbc ca56 12bd
000000a0: f698 373e e632 383e 73e0 403d 694b 943d
000000b0: 2002 45be 5507 55be 9ef5 febd 3aee df3d
000000c0: 1eea 32be 55ac 52be cf20 133c 78c0 1c3d
000000d0: 9002 353d f336 ed3d edfa f13c 3bb8 eabc
000000e0: d7ed dfbc 5172 8d3d 7548 41be a290 563e
000000f0: fb7c a2bb bd96 28be 1165 153e 5bcf 46be
00000100: de95 8fbd 7267 8bbd b4ff 38be 4336 3e3d
00000110: 0836 0bbe ce20 7c3c 7d8f b2bd b1cc 0ebe
00000120: 0416 babd f491 35bd 33de 1b3e ec56 ea3d
00000130: 16e1 56be 2842 54bd 7d76 eebd 98d2 14b9
00000140: 84eb 823d c3ef d03d 642e 263e cc91 2cbe
00000150: 3bfc 50be d9e6 b83d bcdf 713d 6814 5dbe
00000160: 7946 25be 7097 8a3d f853 413e 457b c7bd
00000170: 520a d6bc 43f0 61bc 5853 183e 604f 013d
00000180: 6676 0abe 1de7 273e c935 16be 2550 06be
00000190: b951 aebd 8f58 e3bd d6ed 02bd 300c c53d
000001a0: 8669 393d bc0b 6b3c 494f c13c 4f83 d9bd
000001b0: c718 3a3e 16be 193e cf11 ba3d d849 093e
000001c0: 33fb 09be 86c9 1a3e 6013 48be 845a 123e
000001d0: 8788 033e 1e21 3dbe ebbe 1f3e e162 203e
000001e0: b143 5c3d b8e3 42be 2c8f 18be 6586 fdbd
000001f0: c602 0cbd c7e4 c1bd 8664 3bbe 9a7a 67bd

conv2.att_dst f4 [1, 1, 128]
0.02773375 0.14692688 0.04684513 0.018499779 -0.059625737 -0.038276665 0.030468144 0.0363142
-0.00028658425 -0.09486587 0.113128975 -0.10009665 -0.09842327 0.17614664 0.10270546 -0.07324361
-0.08466979 -0.15622085 0.009248343 -0.0069018686 -0.20430678 -0.021871062 0.06371985 0.00940246
0.08526782 0.12360576 -0.07436642 0.19238979 -0.066629834 0.16735804 0.09033265 -0.04246839
-0.15566179 0.110811174 -0.15598467 -0.118394114 0.13698506 -0.00721439 0.16035965 0.20181292
0.17937455 -0.05548613 0.105438165 -0.10134698 -0.043391526 0.090102464 -0.028150043 0.0072896755
-0.18044315 0.19862299 0.07276196 0.06742954 -0.19314614 -0.1865372 -0.06295196 -0.16305523
0.09184126 0.060940225 -0.18318649 -0.12696676 0.053324483 0.10605291 -0.18743107 0.08069807
0.06861056 -0.062390096 -0.10815225 -0.06518668 0.10391387 0.20851448 -0.078355886 0.12922066
0.13819647 0.012542801 0.0006292502 0.004744434 -0.19424509 0.19220649 0.1720511 0.010396763
0.022520049 -0.16557871 -0.11181114 0.042395886 0.14125605 -0.13071524 -0.009813382 -0.06466471
-0.087612934 0.19058684 -0.20020443 0.11194042 0.17258054 -0.08033202 -0.18463232 -0.08811421
-0.0015161255 -0.086318605 0.14871053 -0.18868983 -0.0474935 -0.17877133 -0.05349894 -0.18151437
0.1513627 0.074539036 -0.1774465 -0.12130236 -0.15032817 -0.14298268 0.20016916 -0.006911188
-0.029622955 0.20112865 0.06516699 -0.20702861 0.14902817 0.15590496 0.07432204 0.17059651
-0.1839411 -0.1752347 -0.043082237 -0.042639006 -0.13843997 0.05737349 0.15250798 0.14256209
00000000: e431 e33c 0074 163e aee0 3f3d d98c 973c
00000010: 1e3a 74bd fec7 1cbd 5498 f93c 33be 143d
00000020: b040 96b9 0a49 c2bd 2ab0 e73d 79ff ccbd
00000030: 2492 c9bd c95f 343e 3d57 d23d bf00 96bd
00000040: 5b67 adbd 5cf8 1fbe 5d86 173c 1229 e2bb
00000050: cc35 51be f12a b3bc 8d7f 823d c70c 1a3c
00000060: e5a0 ae3d 0425 fd3d 6c4d 98bd d401 453e
00000070: 3975 88bd e85f 2b3e 5300 b93d 56f3 2dbd
00000080: ce65 1fbe f8f0 e23d 72ba 1fbe 9d78 f2bd
00000090: d045 0c3e b166 ecbb 5235 243e 0ca8 4e3e
000000a0: f6ad 373e 6d45 63bd f7ef d73d 018f cfbd
000000b0: 50bb 31bd a487 b83d eb9a e6bc 3bde ee3b
000000c0: 17c6 38be d363 4b3e 3904 953d 8018 8a3d
000000d0: 1ac8 45be 9c03 3fbe f5ec 80bd f3f7 26be
000000e0: 4517 bc3d 759c 793d 3d95 3bbe 9303 02be
000000f0: c66a 5a3d 4532 d93d eeed 3fbe 0845 a53d
00000100: b183 8c3d c28c 7fbd ed7e ddbd 9880 85bd
00000110: ccd0 d43d d284 553e 0d79 a0bd 6c52 043e
00000120: 6083 0d3e 5280 4d3c 44f4 243a 3277 9b3b
00000130: 2fe8 46be c7d1 443e 2a2e 303e 2f57 2a3c
00000140: f77b b83c 778d 29be 3dfd e4bd 4fa7 2d3d
00000150: 6da5 103e 37da 05be 4fc8 20bc ee6e 84bd
00000160: 696e b3bd 3229 433e 6402 4dbe 0541 e53d
00000170: f4b8 303e 1d85 a4bd 4110 3dbe 3975 b4bd
00000180: bbb8 c6ba cfc7 b0bd 9347 183e e837 41be
00000190: 8b88 42bd d50f 37be b421 5bbd e7de 39be
000001a0: d3fe 1a3e eca7 983d 89b4 35be 5f6d f8bd
000001b0: a1ef 19be 0d6a 12be 25f9 4c3e 3f77 e2bb
000001c0: d7ab f2bc abf4 4d3e 4576 853d 4fff 53be
000001d0: d79a 183e 8da5 1f3e 2736 983d dab0 2e3e
000001e0: 0e5b 3cbe ba70 33be 0077 30bd 3da6 2ebd
000001f0: 35c3 0dbe 7700 6b3d 0d2b 1c3e ccfb 113e

conv2.bias f4 [128]
-0.0015352758 0.0056202197 -0.0031070716 0.015100478 0.002776268 0.006049849 -0.004117596 -0.0023892364
-0.004334591 -0.016076894 0.0008217423 -0.008193486 0.0016816612 -0.008360745 0.0032295156 -0.01179697
0.004853802 -0.0054147057 0.00140453 -0.0029632358 0.0051201754 -0.001809009 -0.00080482394 0.0096695125
-0.0026178602 0.0034726788 0.000118291835 -0.008812678 -0.007707328 0.00018702474 -0.002348711 0.005404487
-0.00072971475 0.0042962353 -0.0068605705 -0.006990948 0.0039025072 -0.0005148139 -0.0025128466 -0.009310713
0.00157859 -0.0035232592 0.0030156618 -0.0026396208 -0.0063399607 -0.00019748464 0.0036409553 0.017042536
0.0021677515 -0.0012668745 0.0026532705 -0.00087763433 -0.006996974 -0.005057125 -0.012556853 -0.0009744451
0.00065707497 -0.0023066679 6.521743e-05 0.010456745 -4.9531394e-05 -0.006641925 0.00764135 0.00267783
0.0002035392 -0.003962572 0.0042147725 0.0005387613 -0.0020767297 0.0022120045 0.004169416 0.0014833371
-0.00804723 -0.003119087 0.00086564687 -0.0048089614 0.010145432 0.006794278 -0.0057739373 -0.0033104483
0.011558663 -0.011569499 0.0011285131 0.0022232803 0.0023388225 -0.007195952 -0.0047160913 0.0087518655
0.011852879 -0.007221079 0.000120630946 0.0033767582 0.00040962594 0.0032021173 0.00059948 0.007536932
0.001522704 -0.00047604326 -0.0034556808 -0.0035572143 -0.0036910519 -0.008054374 0.0012873303 -0.0058699874
0.00419523 -0.012123042 -0.000610113 -0.004943274 0.0035955813 0.003998546 -0.0074262773 -0.005647534
0.0033091425 0.0028659082 0.0024373294 0.0060697645 -0.00030405456 0.001647471 -0.003029865 0.00434297
0.0066825184 -0.0016349488 0.0027437054 -0.001679817 0.008954179 -0.021525523 -0.002577901 -0.004766066
00000000: 4f3b c9ba d229 b83b 03a0 4bbb ff67 773c
00000010: 0cf2 353b d03d c63b e6ec 86bb bc94 1cbb
00000020: 2f09 8ebb b1b3 83bc 316a 573a f93d 06bc
00000030: 306b dc3a 82fb 08bc 48a6 533b 1448 41bc
00000040: a40c 9f3b d86d b1bb 3518 b83a d932 42bb
00000050: 25c7 a73b 451c edba d2fa 52ba e06c 1e3c
00000060: 6890 2bbb e295 633b 7213 f838 0d63 10bc
00000070: c18d fcbb 121c 4439 d5ec 19bb 1f18 b13b
00000080: 544a 3fba 6fc7 8c3b a3ce e0bb 5314 e5bb
00000090: 35c1 7f3b 93f4 06ba 92ae 24bb f68b 18bc
000000a0: b1e8 ce3a 7be6 66bb 69a2 453b 7dfd 2cbb
000000b0: 72bf cfbb e113 4fb9 189d 6e3b ca9c 8b3c
000000c0: d610 0e3b 410d a6ba 7ee2 2d3b 0b11 66ba
000000d0: df46 e5bb 3db6 a5bb 42bb 4dbc e771 7fba
000000e0: 8e3f 2c3a 772b 17bb 57c5 8838 c452 2b3c
000000f0: eebf 4fb8 81a4 d9bb 4a64 fa3b 887e 2f3b
00000100: 236d 5539 77d8 81bb 131c 8a3b a93b 0d3a
00000110: be19 08bb 47f7 103b 999f 883b 896c c23a
00000120: 87d8 03bc 9969 4cbb 94ec 623a 7e94 9dbb
00000130: 0739 263c 89a2 de3b 4c33 bdbb 1bf4 58bb
00000140: 8c60 3d3c ff8d 3dbc 9eea 933a 74b4 113b
00000150: ee46 193b 05cc ebbb 7189 9abb fc63 0f3c
00000160: 9432 423c cd9e ecbb 3ffb fc38 9a4c 5d3b
00000170: 10c3 d639 9dda 513b 6c26 1d3a 5ef8 f63b
00000180: 7895 c73a 7295 f9b9 b478 62bb 2720 69bb
00000190: 93e5 71bb 7ef6 03bc a3bb a83a 0659 c0bb
000001a0: 2478 893b b99f 46bc feef 1fba 30fb a1bb
000001b0: d8a3 6b3b 3c06 833b 2158 f3bb f30e b9bb
000001c0: 33de 583b f6d1 3b3b 9abb 1f3b e0e4 c63b
000001d0: 8369 9fb9 f4ef d73a b390 46bb 794f 8e3b
000001e0: 07f9 da3b c74b d6ba bdcf 333b 4e2d dcba
000001f0: 8cb4 123c 4b56 b0bc 00f2 28bb a92c 9cbb

conv2.lin_src.weight f4 [128, 128]
0.07185519 -0.023942908 -0.031446166 0.11147839 -0.07318618 -0.1459733 -0.031306718 -0.059914142
-0.109097324 -0.12981895 0.14956984 -0.013736801 -0.114169605 -0.06839095 -0.109378755 -0.095320456
-0.0013796913 -0.0022408257 0.07972238 0.12920006 0.14604394 0.13953498 0.1195104 -0.1513228
0.035519015 0.15179075 0.022350278 0.1101015 -0.007975407 0.029640388 0.051860545 -0.11624878
0.0656889 0.12565354 0.08594207 0.023910787 -0.09771472 -0.085111074 -0.0950701 0.14742355
-0.11616295 -0.12673089 0.026273774 -0.11715245 0.070087284 0.0076021287 0.15227836 0.06932573
0.053391088 -0.07987304 0.10219758 0.13970791 -0.003131887 -0.10267759 0.14402536 -0.0112113
0.022375602 -0.061961442 -0.16281371 -0.14397614 -0.054841068 -0.07427919 -0.038839847 0.09157397
-0.045781713 0.023590695 -0.051830515 0.021616496 0.089191034 0.122504726 -0.0037658473 -0.120804474
-0.10372476 -0.024291053 -0.066886336 0.11883689 -0.03373119 0.04967241 -0.1316493 -0.033221714
-0.07552304 0.012789563 0.08286673 -0.025187189 -0.054693073 0.12627386 0.024392191 -0.044309847
0.11431734 -0.11771745 0.09511246 0.11660072 -0.0458725 0.024858119 0.07391643 0.0878989
-0.09820095 -0.10878408 0.16002288 -0.13734484 -0.10410221 0.11433987 0.09739183 0.037351657
0.11281238 -0.05221114 -0.15020837 -0.12552956 -0.09042506 -0.082804665 0.034015324 -0.10857088
0.020513289 -0.019266434 -0.070356704 0.104208045 -0.13375884 0.0719561 0.10677093 -0.059387464
0.13044922 -0.08593415 0.13300927 0.06036055 -0.059837326 -0.13023461 0.10478023 -0.11673332
0.103668 -0.12306965 -0.026015937 0.0589046 0.033371527 -0.112756215 -0.018933434 0.12708429
-0.038091935 0.016216079 -0.14892426 -0.097742245 -0.10292319 0.0095436545 0.00370026 0.058250085
-0.07232204 0.066485256 0.06363531 -0.12661688 0.034605 0.052686002 0.019240968 -0.11431709
-0.021651661 -0.11678084 -0.10097696 0.1581594 0.12893523 0.10685434 -0.070933394 0.06643946
0.13697538 0.040155433 0.06262935 0.12935378 0.035981033 -0.017395373 0.06260634 -0.103035
0.12580892 0.08676862 0.1500552 0.09945972 0.1018293 0.124928765 -0.022619119 -0.11352334
-0.0030035293 -0.019376358 0.092327215 -0.1558594 -0.1598871 -0.04694932 -0.04665714 0.060995415
-0.049314864 0.14056277 -0.11499004 -0.026668454 -0.057507884 0.032451645 0.11393921 -0.05961138
-0.065808 0.048491016 -0.07455683 -0.0051977583 0.1306047 0.0077369832 0.11520909 -0.13080524
0.11205268 -0.07003884 -0.049270816 -0.022310102 0.08677234 0.071259335 -0.13572754 0.003408785
-0.13269353 0.070698895 0.08480756 -0.046502687 -0.13556561 0.115630925 -0.12543589 -0.09712998
-0.028865425 -0.09918597 -0.04711761 -0.12293373 -0.06873327 0.048001815 -0.048644572 0.15241924
0.10025759 -0.07913039 0.0856691 0.02770525 -0.06715939 0.0021587352 0.055570222 0.036247827
0.04671657 -0.1482914 0.044165157 -0.0065628774 0.034020074 -0.08091266 -0.03415726 -0.026393732
-0.03456885 0.14228337 -0.037592433 0.052025832 0.030836653 -0.10343438 -0.1467343 -0.032623697
-0.028340625 -0.022628192 0.00041730984 -0.08405366 0.02460006 0.098553374 -0.09840871 0.08559113
00000000: d028 933d eb23 c4bc b2cd 00bd c84e e43d
00000010: a3e2 95bd 067a 15be 793b 00bd 8868 75bd
00000020: 6b6e dfbd 42ef 04be d628 193e 5210 61bc
00000030: c1d1 e9bd 8e10 8cbd f801 e0bd 5f37 c3bd
00000040: c2d6 b4ba d1da 12bb 7d45 a33d 054d 043e
00000050: 8b8c 153e 42e2 0e3e dec1 f43d 5df4 1abe
00000060: 637c 113d 096f 1b3e ee17 b73c e57c e13d
00000070: 48ab 02bc 66d0 f23c b96b 543d d713 eebd
00000080: e787 863d 52ab 003e 6502 b03d 8ee0 c33c
00000090: a81e c8bd b74e aebd 1db4 c2bd 33f6 163e
000000a0: d7e6 edbd bec5 01be 193c d73c a0ed efbd
000000b0: ec89 8f3d 471b f93b dcee 1b3e a6fa 8d3d
000000c0: 9db0 5a3d 7a94 a3bd f74c d13d 970f 0f3e
000000d0: 5840 4dbb a148 d2bd 627b 133e 9aaf 37bc
000000e0: 0a4d b73c 48cb 7dbd a3b8 26be 7b6e 13be
000000f0: 07a1 60bd b01f 98bd 8816 1fbd 228b bb3d
00000100: 9b85 3bbd 4641 c13c 3c4c 54bd 1415 b13c
00000110: caa9 b63d c2e3 fa3d 6fcc 76bb 5668 f7bd
00000120: a66d d4bd 08fe c6bc b4fb 88bd c160 f33d
00000130: b729 0abd 4c75 4b3d 13cf 06be 7e13 08bd
00000140: d3ab 9abd 518b 513c 08b6 a93d 5d55 cebc
00000150: d805 60bd ef4d 013e 22d2 c73c 3e7e 35bd
00000160: 361f ea3d d915 f1bd 52ca c23d 5ccc ee3d
00000170: cde4 3bbd 41a3 cb3c 7f61 973d 5704 b43d
00000180: 941d c9bd 30ca debd 0add 233e 20a4 0cbe
00000190: 8a33 d5bd 062b ea3d 5e75 c73d 0dfe 183d
000001a0: 2d0a e73d 59db 55bd 39d0 19be d28a 00be
000001b0: c630 b9bd 7e95 a9bd a753 0b3d 695a debd
000001c0: 7c0b a83c a4d4 9dbc 2d17 90bd 076b d53d
000001d0: 14f8 08be b85d 933d b8aa da3d 4540 73bd
000001e0: 7b94 053e 3efe afbd 9533 083e a03c 773d
000001f0: fc17 75bd 395c 05be 0497 d63d e111 efbd
00000200: e34f d43d f10b fcbd 601f d5bc f345 713d
00000210: 95b0 083d bbec e6bd 4a1a 9bbc 6222 023e
00000220: 4a06 1cbd 95d7 843c 9a7f 18be 162d c8bd
00000230: 65c9 d2bd fd5c 1c3c 1080 723b a497 6e3d
00000240: 941d 94bd 6c29 883d 3b53 823d dba7 01be
00000250: f9bd 0d3d 47cd 573d 3c9f 9d3c 141f eabd
00000260: d35e b1bc cb2a efbd 02cd cebd 8af4 213e
00000270: 9907 043e 73d6 da3d 8745 91bd 6911 883d
00000280: 4643 0c3e 067a 243d d143 803d 5175 043e
00000290: d960 133d be80 8ebc c137 803d 0404 d3bd
000002a0: 0ed4 003e bfb3 b13d 12a8 193e 8ab1 cb3d
000002b0: e18b d03d a7da ff3d bb4b b9bc ed7e e8bd
000002c0: dcd6 44bb 2bbb 9ebc 0d16 bd3d 9b99 1fbe
000002d0: 72b9 23be ee4d 40bd 8f1b 3fbd 54d6 793d
000002e0: 62fe 49bd b0ef 0f3e e67f ebbd cd77 dabc
000002f0: 638d 6bbd 04ec 043d f658 e93d 102b 74bd
00000300: 58c6 86bd 849e 463d 40b1 98bd f551 aabb
00000310: 3dbd 053e 8586 fd3b bef2 eb3d cff1 05be
00000320: e07b e53d 8670 8fbd 32d0 49bd adc3 b6bc
00000330: b2b5 b13d 6af0 913d 29fc 0abe ec65 5f3b
00000340: d0e0 07be 95ca 903d 96af ad3d 9a79 3ebd
00000350: b6d1 0abe e8cf ec3d 4472 00be 15ec c6bd
00000360: 2f77 ecbc 0422 cbbd 65fe 40bd aec4 fbbd
00000370: 07c4 8cbd 8d9d 443d 883f 47bd ca13 1c3e
00000380: da53 cd3d 1d0f a2bd 4873 af3d 1ff6 e23c
00000390: dd8a 89bd 9179 0d3b 9a9d 633d 9a78 143d
000003a0: e059 3f3d b3d9 17be 86e6 343d 680d d7bb
000003b0: a258 0b3d 89b5 a5bd 7ce8 0bbd ab37 d8bc
000003c0: 1198 0dbd bbb2 113e 86fa 19bd 0a19 553d
000003d0: 269d fc3c 67d5 d3bd 8441 16be 6da0 05bd
000003e0: 992a e8bc c25e b9bc 61ca da39 5324 acbd
000003f0: 1186 c93c 5ad6 c93d 818a c9bd 674a af3d

conv2.lin_dst.weight f4 [128, 128]
0.07185519 -0.023942908 -0.031446166 0.11147839 -0.07318618 -0.1459733 -0.031306718 -0.059914142
-0.109097324 -0.12981895 0.14956984 -0.013736801 -0.114169605 -0.06839095 -0.109378755 -0.095320456
-0.0013796913 -0.0022408257 0.07972238 0.12920006 0.14604394 0.13953498 0.1195104 -0.1513228
0.035519015 0.15179075 0.022350278 0.1101015 -0.007975407 0.029640388 0.051860545 -0.11624878
0.0656889 0.12565354 0.08594207 0.023910787 -0.09771472 -0.085111074 -0.0950701 0.14742355
-0.11616295 -0.12673089 0.026273774 -0.11715245 0.070087284 0.0076021287 0.15227836 0.06932573
0.053391088 -0.07987304 0.10219758 0.13970791 -0.003131887 -0.10267759 0.14402536 -0.0112113
0.022375602 -0.061961442 -0.16281371 -0.14397614 -0.054841068 -0.07427919 -0.038839847 0.09157397
-0.045781713 0.023590695 -0.051830515 0.021616496 0.089191034 0.122504726 -0.0037658473 -0.120804474
-0.10372476 -0.024291053 -0.066886336 0.11883689 -0.03373119 0.04967241 -0.1316493 -0.033221714
-0.07552304 0.012789563 0.08286673 -0.025187189 -0.054693073 0.12627386 0.024392191 -0.044309847
0.11431734 -0.11771745 0.09511246 0.11660072 -0.0458725 0.024858119 0.07391643 0.0878989
-0.09820095 -0.10878408 0.16002288 -0.13734484 -0.10410221 0.11433987 0.09739183 0.037351657
0.11281238 -0.05221114 -0.15020837 -0.12552956 -0.09042506 -0.082804665 0.034015324 -0.10857088
0.020513289 -0.019266434 -0.070356704 0.104208045 -0.13375884 0.0719561 0.10677093 -0.059387464
0.13044922 -0.08593415 0.13300927 0.06036055 -0.059837326 -0.13023461 0.10478023 -0.11673332
0.103668 -0.12306965 -0.026015937 0.0589046 0.033371527 -0.112756215 -0.018933434 0.12708429
-0.038091935 0.016216079 -0.14892426 -0.097742245 -0.10292319 0.0095436545 0.00370026 0.058250085
-0.07232204 0.066485256 0.06363531 -0.12661688 0.034605 0.052686002 0.019240968 -0.11431709
-0.021651661 -0.11678084 -0.10097696 0.1581594 0.12893523 0.10685434 -0.070933394 0.06643946
0.13697538 0.040155433 0.06262935 0.12935378 0.035981033 -0.017395373 0.06260634 -0.103035
0.12580892 0.08676862 0.1500552 0.09945972 0.1018293 0.124928765 -0.022619119 -0.11352334
-0.0030035293 -0.019376358 0.092327215 -0.1558594 -0.1598871 -0.04694932 -0.04665714 0.060995415
-0.049314864 0.14056277 -0.11499004 -0.026668454 -0.057507884 0.032451645 0.11393921 -0.05961138
-0.065808 0.048491016 -0.07455683 -0.0051977583 0.1306047 0.0077369832 0.11520909 -0.13080524
0.11205268 -0.07003884 -0.049270816 -0.022310102 0.08677234 0.071259335 -0.13572754 0.003408785
-0.13269353 0.070698895 0.08480756 -0.046502687 -0.13556561 0.115630925 -0.12543589 -0.09712998
-0.028865425 -0.09918597 -0.04711761 -0.12293373 -0.06873327 0.048001815 -0.048644572 0.15241924
0.10025759 -0.07913039 0.0856691 0.02770525 -0.06715939 0.0021587352 0.055570222 0.036247827
0.04671657 -0.1482914 0.044165157 -0.0065628774 0.034020074 -0.08091266 -0.03415726 -0.026393732
-0.03456885 0.14228337 -0.037592433 0.052025832 0.030836653 -0.10343438 -0.1467343 -0.032623697
-0.028340625 -0.022628192 0.00041730984 -0.08405366 0.02460006 0.098553374 -0.09840871 0.08559113
00000000: d028 933d eb23 c4bc b2cd 00bd c84e e43d
00000010: a3e2 95bd 067a 15be 793b 00bd 8868 75bd
00000020: 6b6e dfbd 42ef 04be d628 193e 5210 61bc
00000030: c1d1 e9bd 8e10 8cbd f801 e0bd 5f37 c3bd
00000040: c2d6 b4ba d1da 12bb 7d45 a33d 054d 043e
00000050: 8b8c 153e 42e2 0e3e dec1 f43d 5df4 1abe
00000060: 637c 113d 096f 1b3e ee17 b73c e57c e13d
00000070: 48ab 02bc 66d0 f23c b96b 543d d713 eebd
00000080: e787 863d 52ab 003e 6502 b03d 8ee0 c33c
00000090: a81e c8bd b74e aebd 1db4 c2bd 33f6 163e
000000a0: d7e6 edbd bec5 01be 193c d73c a0ed efbd
000000b0: ec89 8f3d 471b f93b dcee 1b3e a6fa 8d3d
000000c0: 9db0 5a3d 7a94 a3bd f74c d13d 970f 0f3e
000000d0: 5840 4dbb a148 d2bd 627b 133e 9aaf 37bc
000000e0: 0a4d b73c 48cb 7dbd a3b8 26be 7b6e 13be
000000f0: 07a1 60bd b01f 98bd 8816 1fbd 228b bb3d
00000100: 9b85 3bbd 4641 c13c 3c4c 54bd 1415 b13c
00000110: caa9 b63d c2e3 fa3d 6fcc 76bb 5668 f7bd
00000120: a66d d4bd 08fe c6bc b4fb 88bd c160 f33d
00000130: b729 0abd 4c75 4b3d 13cf 06be 7e13 08bd
00000140: d3ab 9abd 518b 513c 08b6 a93d 5d55 cebc
00000150: d805 60bd ef4d 013e 22d2 c73c 3e7e 35bd
00000160: 361f ea3d d915 f1bd 52ca c23d 5ccc ee3d
00000170: cde4 3bbd 41a3 cb3c 7f61 973d 5704 b43d
00000180: 941d c9bd 30ca debd 0add 233e 20a4 0cbe
00000190: 8a33 d5bd 062b ea3d 5e75 c73d 0dfe 183d
000001a0: 2d0a e73d 59db 55bd 39d0 19be d28a 00be
000001b0: c630 b9bd 7e95 a9bd a753 0b3d 695a debd
000001c0: 7c0b a83c a4d4 9dbc 2d17 90bd 076b d53d
000001d0: 14f8 08be b85d 933d b8aa da3d 4540 73bd
000001e0: 7b94 053e 3efe afbd 9533 083e a03c 773d
000001f0: fc17 75bd 395c 05be 0497 d63d e111 efbd
00000200: e34f d43d f10b fcbd 601f d5bc f345 713d
00000210: 95b0 083d bbec e6bd 4a1a 9bbc 6222 023e
00000220: 4a06 1cbd 95d7 843c 9a7f 18be 162d c8bd
00000230: 65c9 d2bd fd5c 1c3c 1080 723b a497 6e3d
00000240: 941d 94bd 6c29 883d 3b53 823d dba7 01be
00000250: f9bd 0d3d 47cd 573d 3c9f 9d3c 141f eabd
00000260: d35e b1bc cb2a efbd 02cd cebd 8af4 213e
00000270: 9907 043e 73d6 da3d 8745 91bd 6911 883d
00000280: 4643 0c3e 067a 243d d143 803d 5175 043e
00000290: d960 133d be80 8ebc c137 803d 0404 d3bd
000002a0: 0ed4 003e bfb3 b13d 12a8 193e 8ab1 cb3d
000002b0: e18b d03d a7da ff3d bb4b b9bc ed7e e8bd
000002c0: dcd6 44bb 2bbb 9ebc 0d16 bd3d 9b99 1fbe
000002d0: 72b9 23be ee4d 40bd 8f1b 3fbd 54d6 793d
000002e0: 62fe 49bd b0ef 0f3e e67f ebbd cd77 dabc
000002f0: 638d 6bbd 04ec 043d f658 e93d 102b 74bd
00000300: 58c6 86bd 849e 463d 40b1 98bd f551 aabb
00000310: 3dbd 053e 8586 fd3b bef2 eb3d cff1 05be
00000320: e07b e53d 8670 8fbd 32d0 49bd adc3 b6bc
00000330: b2b5 b13d 6af0 913d 29fc 0abe ec65 5f3b
00000340: d0e0 07be 95ca 903d 96af ad3d 9a79 3ebd
00000350: b6d1 0abe e8cf ec3d 4472 00be 15ec c6bd
00000360: 2f77 ecbc 0422 cbbd 65fe 40bd aec4 fbbd
00000370: 07c4 8cbd 8d9d 443d 883f 47bd ca13 1c3e
00000380: da53 cd3d 1d0f a2bd 4873 af3d 1ff6 e23c
00000390: dd8a 89bd 9179 0d3b 9a9d 633d 9a78 143d
000003a0: e059 3f3d b3d9 17be 86e6 343d 680d d7bb
000003b0: a258 0b3d 89b5 a5bd 7ce8 0bbd ab37 d8bc
000003c0: 1198 0dbd bbb2 113e 86fa 19bd 0a19 553d
000003d0: 269d fc3c 67d5 d3bd 8441 16be 6da0 05bd
000003e0: 992a e8bc c25e b9bc 61ca da39 5324 acbd
000003f0: 1186 c93c 5ad6 c93d 818a c9bd 674a af3d
