skill_net-GraphSAGE-9-0.8237620323541279-0.77030375528688-0.39144018292427063.pth (torch, 524510 bytes, 12 tensors)

pre_embs.weight f4 [110, 128]
000000 44 86 0f 3d 2c 36 39 bf 67 fe 1b 3f f1 d2 81 3f
       0.035040155 -0.72348285 0.6093506 1.0142499
000010 c3 98 eb bd e2 cf 76 bf b9 50 ed 3e 47 a8 02 be
       -0.11503746 -0.96410954 0.4635065 -0.12759505
000020 f4 c7 84 3f e5 9a 46 3e 29 76 ae bf b6 4e 04 bf
       1.0373521 0.19395025 -1.362981 -0.51682603
000030 e9 62 87 bf 83 10 9f 3e 0c ed bb 3f 0d 04 df 3e
       -1.057706 0.31067285 1.4681716 0.43557778
000040 c6 2f aa 3f f4 fd b0 bd d1 1a a1 3e 23 ea b4 3e
       1.3295829 -0.08642188 0.31465772 0.35334882
000050 41 71 7b 3f 2e 52 7a 3f cf c7 a4 bf 8c f0 d2 3f
       0.98219687 0.97781646 -1.2873477 1.6479659
000060 e9 20 cc bf 8a 76 9e bf b7 f1 0b bf 4d 0b 10 3e
       -1.5947543 -1.2379925 -0.546657 0.14066811
000070 32 ea 1f 3f b7 e0 a6 be ad 4c 00 3f e4 54 c6 3f
       0.6246673 -0.3259332 0.50117 1.5494657
000080 80 8c 0d be e7 e5 b9 3c 79 ee bd 3f 12 ca b2 bf
       -0.13823128 0.022692634 1.4838401 -1.3967917
000090 50 3d 06 bf c8 1d a2 bd f4 de 19 bf 10 02 3d bf
       -0.52437305 -0.079158366 -0.60105824 -0.7383127
0000a0 a7 58 19 bf c4 fc 27 be 9d af 95 bf 97 44 31 3f
       -0.599009 -0.16405016 -1.1694218 0.69245285
0000b0 cb 11 b9 3e 71 84 d5 bf 6d d3 76 3f f6 c3 3b bf
       0.36146387 -1.6681043 0.9641636 -0.7334589
0000c0 a5 da fa 3e 47 93 68 bf d2 40 39 3e 78 69 21 bf
       0.48994938 -0.9084973 0.18091133 -0.6305156
0000d0 ce 44 a8 3d 97 5a 2b 3f 7c 35 7e 3f 47 a7 97 be
       0.082162485 0.66935104 0.9930036 -0.2961981
0000e0 eb dd 0d 3f 32 e0 37 3e fa 21 1f 3f 83 fb b9 bf
       0.55416745 0.17956617 0.6216122 -1.452988
0000f0 6e c7 bd 3f 77 28 b3 3e bd 79 c8 bf fb f8 3b 3f
       1.4826486 0.3499181 -1.5662152 0.7342679
000100 b6 e0 e2 bd 1c 43 f1 bf d0 12 9a be 34 75 8d 3f
       -0.110780165 -1.8848605 -0.30092478 1.1051393
000110 7a 91 83 bf cd 59 10 40 02 ac 17 bf a8 91 c2 bf
       -1.0278771 2.255481 -0.5924684 -1.5200701
000120 58 72 0b 40 45 c5 3a bf 6c be 25 bf 34 aa 42 be
       2.178854 -0.7295726 -0.64743686 -0.1901024
000130 2e c6 cd bd dc 0d 1f 3f 52 36 7b bf 1f 3f 7c 3f
       -0.100475654 0.6213052 -0.9812976 0.98533815
000140 1c 75 ed bd fd 42 42 3e f9 1e 44 3f 11 a4 87 3f
       -0.115946025 0.18970867 0.7660976 1.0596944
000150 19 39 16 3f 75 2e 91 3f bd 44 dc 3e f6 40 e8 bf
       0.58680874 1.1342303 0.43021193 -1.8144825
000160 b4 5d 22 be c1 8b c9 3e 7e da 13 3f dd c6 f8 3e
       -0.15856057 0.39364436 0.5775527 0.4858922
000170 22 42 e9 3e ad 57 bb 3e fd 8d 54 3f 93 95 99 bf
       0.45558268 0.3659033 0.83029157 -1.1998771
000180 a0 58 e0 be 7e 69 e4 3e bb ec 02 3e 4c 8d cc be
       -0.43817616 0.44611734 0.12785618 -0.3995155
000190 bf ab 09 c0 8f a7 e6 3d 19 1f e1 be 2c 10 42 bf
       -2.1511075 0.11262428 -0.43969038 -0.75805926
0001a0 c6 e2 6d 3d 29 59 03 bf 71 d9 81 bf 1b a8 9a 3f
       0.058077596 -0.5130792 -1.0144483 1.2082552
0001b0 f8 3b 80 3f 4f 38 40 3f 3f fa 28 bd f7 d8 8e bf
       1.0018301 0.7508592 -0.04125428 -1.1159962
0001c0 08 27 fd 3e 6d 31 23 bf 4d f2 45 bf ad 1b cc bf
       0.4944384 -0.6374729 -0.77322847 -1.5945946
0001d0 61 a0 33 c0 00 7f 41 3e fb 7e c1 bd 6c 4a 6f 3f
       -2.8066638 0.18896103 -0.09448048 0.93472934
0001e0 a1 09 a6 be ba f2 37 be 09 d4 94 3f bc 65 54 be
       -0.3242922 -0.17963687 1.1627208 -0.20741934
0001f0 83 b4 fa 3f 1e 6e 8f bd a5 03 a0 bf e5 ba b2 3f
       1.9586338 -0.07003425 -1.2501112 1.3963286
000200 9b 3b d2 bf 3e a6 5d 3e c1 12 eb bf 4b f0 f6 3f
       -1.642444 0.21645448 -1.8365098 1.9292082
000210 50 b4 2e 3f 61 0e ab be cb 47 6b bf 57 05 52 3f
       0.68243885 -0.33409408 -0.9190642 0.820394
000220 35 9e 0e 3f 46 53 5c 3f 2c bd eb bf 20 c1 67 3f
       0.55710155 0.86064565 -1.8417106 0.9052906
000230 af 43 84 bf 44 f7 62 bc 10 e4 87 3f 2a 83 00 3f
       -1.0333155 -0.013852898 1.0616474 0.5020014
000240 fa 5f 4c bd 13 00 94 3f 4e ca 6f 3f 46 59 53 bf
       -0.049896218 1.1562523 0.9366807 -0.82558095
000250 86 78 80 bf d0 61 af 3f 2e 32 5c 3f 7d c6 76 bf
       -1.0036781 1.3701725 0.8601407 -0.9639662
000260 41 e1 0a c0 38 42 50 3e d8 41 01 bf 21 c7 f9 be
       -2.1699984 0.2033776 -0.50491095 -0.48784736
000270 e4 d4 9a 3f 61 19 c4 3e 3a 2b 79 bf e1 b7 6d 3f
       1.2096219 0.38300613 -0.97331583 0.928587
000280 af 1a 8f bf 05 9e 8a bf f5 95 2a 3e c0 f5 0c 3f
       -1.1180018 -1.0829474 0.16658767 0.55062485
000290 f6 73 89 bf a2 77 81 3f 75 ba bc 3e bc 28 34 bf
       -1.0738513 1.0114634 0.36861005 -0.70374656
0002a0 21 73 32 bd 97 02 a5 3f 7e 98 19 bf 9a a5 0f 3f
       -0.043566827 1.2891415 -0.5999831 0.5611206
0002b0 bd 11 52 bf d8 19 e7 bd 93 98 e0 be 44 97 9c 3f
       -0.82058316 -0.11284226 -0.43866405 1.2233663
0002c0 f4 e1 e2 bf 73 8a 60 be 18 11 09 3f 70 8b 30 bf
       -1.7725205 -0.21927814 0.5354171 -0.68962765
0002d0 f6 81 21 bf 9f e1 ff 3e 9f 1c f3 3e e4 5f f1 bd
       -0.6308893 0.49976823 0.47482774 -0.11785868
0002e0 99 ee 08 3e fe 5a 65 3f 75 87 b0 3d 6a 18 1e bf
       0.13372268 0.8959197 0.086195864 -0.61756
0002f0 6a ab 17 bf 48 be 72 3e 43 6c e8 3c b8 26 92 bf
       -0.5924593 0.23705399 0.028371936 -1.1418066
000300 94 aa 8a bf 7e fb ed 3e c4 33 ae bf 6e 3c 27 be
       -1.0833306 0.46480936 -1.3609548 -0.16331646
000310 59 b0 ca 3e ab f2 40 be ef 3c 1f 3f 82 24 0c 3f
       0.39587668 -0.1884257 0.6220235 0.54743207
000320 7f 61 02 bf d3 ef 36 40 ea 3e aa bf b6 fa a4 3f
       -0.5093002 2.8583877 -1.330045 1.2889011
000330 96 63 be 3f 03 96 b7 be 66 42 51 bf f4 10 af 3f
       1.4874141 -0.35856637 -0.8174194 1.3677049
000340 53 51 15 3e de 9d d0 bc 36 bf f7 3f fc 01 90 bf
       0.14581804 -0.025465902 1.9355228 -1.1250606
000350 6e a8 ed bf 27 bb 67 be 8b 70 90 3f 29 4d d8 bc
       -1.8567026 -0.22629987 1.1284345 -0.02640398
000360 5f b6 36 3e c5 88 e8 3d e9 72 a2 3f 1b f1 9c 3f
       0.17843007 0.11354212 1.2691318 1.226108
000370 03 0b a0 be 8a ca b4 3d 69 9d 9e 3f 7c f5 63 3f
       -0.312584 0.08827694 1.2391788 0.89046454
000380 f7 a6 a4 bd c0 85 e4 3f 24 b1 d5 bd 10 ef 25 3f
       -0.080396585 1.7853317 -0.104341775 0.64817905
000390 f6 a7 21 3e f7 d1 4b 3f 00 8a 7b be 69 24 94 be
       0.15786728 0.79617256 -0.24564362 -0.2893403
0003a0 f2 da d4 be 06 2b c6 3e 7a 7f fa be 01 37 ba bf
       -0.41573292 0.387047 -0.48925382 -1.4548036
0003b0 d5 2c b6 3e e3 f0 34 be 2d 03 e2 3f f4 85 a5 be
       0.3558108 -0.17670016 1.7657219 -0.3232876
0003c0 a4 41 94 3f 59 9b ab bd 12 2a 7c 3d 20 f2 34 3f
       1.1582532 -0.083792396 0.06156356 0.70681953
0003d0 04 78 b0 bf d4 e3 56 bf e9 43 51 3c 74 5b 23 3f
       -1.3786626 -0.8394139 0.012772539 0.6381142
0003e0 ea a4 c8 bf 3b b1 83 be cd 88 04 c0 4a 91 6b 3f
       -1.5675328 -0.25721154 -2.0708497 0.9201857
0003f0 be 31 01 3f 49 c0 e4 3f 6e 43 9f bf 15 ca f0 bf
       0.50466526 1.7871181 -1.2442453 -1.881167

conv1.lin_l.weight f4 [128, 128]
000000 2b 08 26 bd 42 62 13 3d aa da 8c bd 3b 26 40 3d
       -0.040535133 0.035982378 -0.06877644 0.04691146
000010 6b 1a fb 3c 26 1c ba bd 6a fa 8d 3c eb c6 3e bd
       0.030652246 -0.090874 0.01733132 -0.04657642
000020 f7 a8 4c bd bf 57 37 3d 6c 71 77 bd 9b 30 d7 3c
       -0.049965825 0.044761416 -0.060410902 0.026268294
000030 32 57 b5 bb 76 42 1d bd 87 b1 25 3d e1 72 a6 bd
       -0.005534076 -0.03839346 0.040452506 -0.0812738
000040 22 2a 36 bd 6c e9 59 bd c0 90 ad bc 08 60 6e 3c
       -0.044473775 -0.053201124 -0.021187186 0.014549263
000050 23 3b 4f bd f9 25 a5 bd b1 57 dd 3b 10 8e cd bc
       -0.050593507 -0.08063883 0.0067548384 -0.025092155
000060 1a f8 a4 3c a6 08 1c 3d 28 84 d3 bc 3c c0 73 3d
       0.020137835 0.038094185 -0.025819853 0.0595095
000070 ac ba 87 3d f4 e3 7b bd f5 a5 1b bd 95 1d ea bc
       0.06627402 -0.06149669 -0.038000066 -0.028578559
000080 7f f0 68 3d e9 db b4 bc 7a a8 83 3a 42 f1 cc bc
       0.05686998 -0.022077518 0.0010044717 -0.025017384
000090 88 04 3b bd 03 3c a9 3c 38 df 55 3c 4a 4f b9 bd
       -0.04565862 0.020658499 0.013053708 -0.09048326
0000a0 2f 76 78 3d 08 60 5c 3c 98 56 f2 3c 3a e1 b1 3d
       0.060659584 0.01345063 0.029582307 0.08685537
0000b0 1a b3 a5 bd 79 5a b1 bd d9 5c 5b 3d 3a 6b 83 3d
       -0.080908015 -0.086598344 0.053555343 0.06416936
0000c0 6c 75 9d bd 17 60 b2 3d c6 39 0a 3d 56 76 84 3c
       -0.07688412 0.08709734 0.033746503 0.016169708
0000d0 aa 55 2b bd 22 22 c9 3d 5c 21 ad bd 8e 4d a5 bd
       -0.041829742 0.098209634 -0.084536284 -0.08071433
0000e0 6e e9 5b 3d bc f9 74 bb f5 b2 c4 3d ab 70 de bc
       0.053689413 -0.0037380299 0.09604446 -0.027153334
0000f0 95 b8 9f bd 95 0f b3 bb b4 d1 ef bc 38 aa 1e 3d
       -0.07798878 -0.005464504 -0.029274799 0.038736552
000100 64 a2 78 bc 7e c4 32 bd 6a 5e 46 bd a7 78 c6 3b
       -0.015175436 -0.04364442 -0.048429884 0.0060568633
000110 3d ce 89 3c be 0e 7d 3d c6 2a 8b bb e6 de c3 3c
       0.016821975 0.061781637 -0.0042470424 0.023909997
000120 65 1d 95 3d ba 17 88 bd 15 66 25 ba 0a f1 45 bc
       0.07280997 -0.066451505 -0.0006309462 -0.012081394
000130 0d 46 bd 3d b2 8b 6b bd bf 5e 50 bd 0c c2 3f 3d
       0.09241877 -0.05750627 -0.050871607 0.046815917
000140 2c ae 86 bd da c4 4a bd f3 27 8c 3c e1 4a 93 3d
       -0.065761894 -0.04950414 0.017108893 0.071920164
000150 df 82 30 3d 36 fc 98 bc 59 c2 84 bd 32 60 32 bd
       0.04309356 -0.018674951 -0.064823814 -0.04354877
000160 d0 68 b0 3c 7f 1c a5 bc 01 f8 7c bd f5 ed aa bd
       0.021534353 -0.02015519 -0.061759952 -0.08346168
000170 6f c3 86 bd 1f 30 43 bd e0 ac b2 3b af 80 89 3d
       -0.06580245 -0.047653314 0.005452737 0.067139976
000180 18 f8 31 3d 32 e5 96 bd 25 6d ba 3c 13 ba 12 3b
       0.04344949 -0.07367934 0.022757122 0.002238874
000190 b2 23 86 3d b4 5e 4c 3d ab 48 61 3d 7e 56 30 3d
       0.06549777 0.049895003 0.055000942 0.043051235
0001a0 26 39 bd bc 43 c3 26 bd 08 87 cd 3d 57 1e 41 3c
       -0.02309854 -0.04071356 0.10035521 0.011787019
0001b0 9d 76 8b 3d ed 2c a8 3b 75 29 79 3d 32 37 cb ba
       0.06809733 0.0051323087 0.060830552 -0.001550412
0001c0 37 38 93 bd 54 6b 30 bd 4e 24 00 bd b9 0f 88 bd
       -0.071884565 -0.043071106 -0.031284623 -0.06643624
0001d0 ab 96 a9 3c a1 2f b4 3d 54 6c 63 3c d0 7a 91 bd
       0.020701727 0.08798147 0.013880808 -0.07103503
0001e0 b2 2c 9a 3d bb a2 c7 bc 87 e4 51 bc 2a 78 00 bc
       0.07528056 -0.024369588 -0.012810833 -0.007841149
0001f0 be 7a 4e bd 35 ec 72 bd 6b 3b 98 3d 82 c9 ba bd
       -0.050410025 -0.059307296 0.07433208 -0.09120466
000200 f6 01 e8 bc 81 33 09 bc c1 87 7e bd 76 e5 43 3d
       -0.028321248 -0.008374096 -0.062141184 0.047826253
000210 d8 33 c5 bd 65 be 17 bd 29 33 6d 3d 02 1a 39 3d
       -0.09629029 -0.03704681 0.05791012 0.04519082
000220 c3 93 0d 3b f8 ab d4 bb c2 36 e1 bc f1 52 94 3c
       0.0021602965 -0.006490227 -0.02749193 0.018105956
000230 34 7e 70 3c 4a cc 3a bd 1f 68 bc bd 57 e1 9f bd
       0.014678527 -0.04560498 -0.09199547 -0.07806652
000240 15 dc c8 bb 10 bb 04 3d 43 46 5a bd d2 fd f3 bc
       -0.0061297514 0.03240496 -0.053289663 -0.029784117
000250 63 b5 9b bc 72 30 bc 3d 73 bc 35 3d 95 e2 97 bc
       -0.01900739 0.09188928 0.044369172 -0.01854066
000260 4c 2e ab 3d 67 40 77 3c 3e ad c1 bd 64 f1 56 3d
       0.0835844 0.015091038 -0.094568714 0.0524763
000270 9b bc 9a 3d a5 3b 97 3d 88 a7 2b bd 83 90 c2 bc
       0.07555505 0.07384423 -0.041907817 -0.02375055
000280 1a f1 3f 3c e8 8f 85 ba 22 92 2b bd 50 ad cd 3c
       0.011715198 -0.0010189982 -0.04188741 0.025107056
000290 81 a7 8d bd 79 3a 73 bd 8a d9 d6 3c fd 60 64 3d
       -0.069167145 -0.059381936 0.026226778 0.055756558
0002a0 fb e7 8a 3c 4c c6 42 3d cb ca 53 bd 76 be a8 bc
       0.01695632 0.047552392 -0.05170707 -0.020598631
0002b0 f1 37 2e 3d c9 c6 2d bc bf bc 7a bd ef b9 0c bd
       0.04253382 -0.010606476 -0.06121516 -0.034357008
0002c0 24 3f b3 3d 0c a8 d7 bc 07 4f 5d 3c 95 55 1f bc
       0.087522775 -0.026325248 0.013507611 -0.009724994
0002d0 45 21 60 bd 1b 99 ad 3d 16 1b 63 3d f5 88 97 3c
       -0.05471923 0.08476468 0.055445753 0.018497923
0002e0 73 03 b5 3d 80 cb ef bc 37 d5 0d 3d 83 3a 20 3d
       0.088385485 -0.029271841 0.034627166 0.0391183
0002f0 b6 d9 1a 3d 8b f5 b9 3c a1 cc df bc 6c 0f b5 3b
       0.03780528 0.022700092 -0.027319254 0.00552552
000300 80 bc 96 bd 03 43 57 bd 6e f2 88 3d 55 79 46 bc
       -0.07360172 -0.05255414 0.06686865 -0.012113889
000310 07 da ba bc ac b0 4e 3d 9a ac a8 3d e9 98 ea 3c
       -0.022809042 0.050461456 0.08236046 0.028637366
000320 81 48 92 3d 9e e6 32 3d 03 e7 29 3d 27 51 a3 bd
       0.07142735 0.043676965 0.041480076 -0.07974463
000330 bc 37 80 3d 8f 08 41 bd 86 93 b2 bd ae 95 6f 3c
       0.062606305 -0.047127303 -0.08719544 0.014623089
000340 73 ef 3b bd d7 ac 6c 3d c4 4e 3b bc e6 5a 09 bd
       -0.045882653 0.05778202 -0.011432353 -0.033533953
000350 9b e5 8c bc b4 2a 8e bd 37 7f 3c bd 39 07 c9 3d
       -0.017199328 -0.06941739 -0.04601976 0.09815831
000360 3d 21 90 3d ca 47 ba bd 92 cf b4 bd 9c 2d ba 3d
       0.0703759 -0.09095724 -0.088286534 0.090907305
000370 17 8c af bc c2 6b 12 bd 5a cc 5b bc ea f9 23 3d
       -0.021429105 -0.035747297 -0.01341542 0.04003326
000380 9d bf 29 3d 04 65 7c bd 1c ee bb 3b 1a fe c7 bc
       0.041442502 -0.061619774 0.005735172 -0.024413157
000390 82 de da bd 02 fb ab bd b4 7c a5 bd f6 72 c4 bd
       -0.10686971 -0.08397485 -0.08080426 -0.095922396
0003a0 e4 ed b6 bd fa 66 fc 3c 6e 4b 6a bc a9 35 81 bd
       -0.08932093 0.030810822 -0.01430021 -0.06309063
0003b0 14 5f 67 3d 7d fd 7e 3d d9 15 9d 3d 85 01 8f bd
       0.056487158 0.062253464 0.07670183 -0.06982712
0003c0 2b 4f e1 bc 25 38 1a 3c e1 33 9f 3d 4e be 95 bd
       -0.02750357 0.0094128 0.07773567 -0.07311688
0003d0 47 a6 e3 3c 55 4c 56 3c 6e de 36 3d b2 68 c7 bd
       0.027789248 0.013079722 0.04464572 -0.09736766
0003e0 d2 d3 24 bc b9 47 ef 3c c9 2d c3 bd 6d 3d 71 3d
       -0.0100602675 0.029209005 -0.09530217 0.05889647
0003f0 5e 99 db 3c e9 da 13 bd 50 09 46 bd 66 01 47 3d
       0.02680653 -0.03609744 -0.048348725 0.048585318

conv1.lin_l.bias f4 [128]
000000 ba 29 14 3d a5 05 6f bd eb 2c 83 3d 6e af 53 bd
       0.036172606 -0.058354992 0.06405052 -0.051680975
000010 ea f2 45 3d 3d e5 26 3d 65 e7 4c bd 4a 64 d4 3c
       0.048327364 0.040745962 -0.050025363 0.025926728
000020 e7 51 39 3d a0 a8 e9 3a ed 3e 28 3d 84 69 90 bb
       0.045244124 0.0017826743 0.041075636 -0.0044071097
000030 b7 5b 6b bd 22 1e 6c bc 0d fa 05 bd 1a 5d 6d 3c
       -0.057460513 -0.014411481 -0.03270917 0.014487529
000040 62 85 ba bc e3 cc 84 3d ec 4e 9a 3d d7 1a 8a bd
       -0.02276868 0.064843915 0.075345844 -0.067434005
000050 d5 97 98 3d 59 03 01 bd a7 9d 86 3d a1 78 2b bc
       0.07450835 -0.031497333 0.065730385 -0.010465772
000060 86 5d a6 bb e5 58 62 3d b9 8a 77 bd 48 b5 22 bd
       -0.005077067 0.055260558 -0.06043503 -0.039723665
000070 92 e3 28 bd 59 13 9f 3b 3a 9f dd bb 6b c4 b6 3c
       -0.041232653 0.0048546013 -0.006763366 0.022310456
000080 f7 ec 4b bd b4 a9 33 3d be 05 e4 3c 3d 51 2c bd
       -0.049786534 0.043863013 0.02783477 -0.042069662
000090 67 60 46 3d 8b eb 90 3d 4b 90 90 3d c2 8c bd 3d
       0.04843178 0.07076176 0.07058772 0.09255363
0000a0 32 84 8e 3c b3 70 93 bd 63 73 a3 3d d3 9d e1 3c
       0.01739702 -0.0719923 0.07980993 0.027541077
0000b0 75 4d c7 3c ee 8f 83 3d 3a a9 2f 3c ba 0f 28 3c
       0.024328927 0.06423937 0.010721499 0.010257656
0000c0 f0 3a 34 3d c9 c7 97 bd f2 f1 a1 bc 1b fa ac bd
       0.04400152 -0.07411153 -0.019768689 -0.08446141
0000d0 c3 d4 85 3c fd 6b e6 bc 2a 1d 6e 3d 21 1d 03 3d
       0.016336804 -0.028127665 0.05813328 0.0320102
0000e0 5e f0 85 bd ce 28 bb 3b 8c 64 0b bd 79 87 22 bd
       -0.06539987 0.0057116514 -0.034031436 -0.039679978
0000f0 0e aa af 3c cc 8e 10 bd 5a cc 0e bd 26 38 45 3c
       0.021443393 -0.03529243 -0.034862854 0.012037313
000100 f9 c5 41 3d 33 35 2c 3d 0b 50 af bd 3e 97 7a bd
       0.047307942 0.042042922 -0.08560189 -0.061179392
000110 16 86 ab 3d e3 3c 74 bd 20 a0 e8 3c 02 52 95 39
       0.08375184 -0.05962838 0.028396666 0.00028480595
000120 06 db 35 3d d9 86 b3 bd 2b 9b 87 3d 32 41 1a bd
       0.04439833 -0.087659545 0.06621393 -0.03765983
000130 f6 50 85 bc db f8 8b bd 06 5d 02 3d 3f 27 d6 3c
       -0.016273957 -0.06834575 0.031826995 0.02614176
000140 a8 98 3e bd 81 d0 b5 bc 83 dc 46 3a ef 3f 35 bd
       -0.046532303 -0.022194149 0.00075859594 -0.044250425
000150 5e c1 62 bb 5e 37 8a bd de f0 2c 3d 99 93 b4 bc
       -0.003460012 -0.06748842 0.042221896 -0.022043036
000160 8f af 70 bd 25 96 aa bc 4a 8b 30 3d 73 ce a2 bd
       -0.058761176 -0.020823548 0.043101586 -0.07949533
000170 64 04 63 3c 02 18 7b 3d aa b8 b6 3c 70 83 7f 3d
       0.013856027 0.061302193 0.022304852 0.062381208
000180 de d4 6e 3d cd 39 8f bc 26 92 1c bd e2 26 23 bd
       0.058308475 -0.017483616 -0.038225316 -0.039832003
000190 3e 17 70 bd 02 b9 1b 3d c3 ce 8d bd a3 4c 90 3d
       -0.058615915 0.038018234 -0.06924202 0.07045867
0001a0 54 74 48 bd c8 b6 be bd 50 b3 14 3d a1 df 9f bd
       -0.048939064 -0.093122065 0.03630382 -0.07806326
0001b0 30 4d a1 bd ab c7 02 3c c8 85 ca bc 99 72 66 bc
       -0.078760505 0.007982175 -0.024721995 -0.014065408
0001c0 1f 3f 86 bd 4e a4 0f bd 03 3b 0c bd 62 b5 22 bd
       -0.06555008 -0.035068803 -0.034235965 -0.03972376
0001d0 cd ec eb bc 1d 9b 96 3c 15 00 85 3c d4 b6 43 bd
       -0.028799439 0.01838451 0.01623539 -0.04778178
0001e0 74 06 17 3d 86 ab ba bc 5d 7e 33 bd 52 e5 98 3d
       0.03687139 -0.022786867 -0.04382168 0.074656144
0001f0 28 07 9b 3c 0d dc 52 bd a0 ae 43 bd ac 8f e1 3b
       0.01892431 -0.051479388 -0.047773957 0.006883582

conv1.lin_r.weight f4 [128, 128]
000000 41 7a 21 bd 12 f3 8a bd 07 94 b5 bc 06 da 9f 3d
       -0.03942323 -0.06784643 -0.022165312 0.078052565
000010 88 bb 77 bc 48 c5 3a bb 14 d4 d5 bc 78 fb 3c 3d
       -0.0151203945 -0.0028498936 -0.026102103 0.046138257
000020 f7 a0 a3 bd 71 c1 35 3d 84 26 c1 3c ae 74 3f bc
       -0.07989686 0.044373933 0.023577936 -0.011685533
000030 1b a9 6f 3c 00 d9 11 bd 49 27 12 bc 51 27 c6 3c
       0.01462772 -0.035607338 -0.008920499 0.02418867
000040 61 bf 70 3d 96 5c 8c 3d 35 a9 ac 3d 40 ec 43 bd
       0.058776263 0.06853597 0.08430711 -0.047832727
000050 60 34 a0 bb 19 6a 99 3d 4d d0 82 3d 13 bf 9a 3d
       -0.004889056 0.0749094 0.063873865 0.07555976
000060 39 ea a7 bd 6e ca 20 bc 18 0b 11 bd 6c f2 6d bd
       -0.08198971 -0.009813888 -0.03541097 -0.05809252
000070 02 59 14 3d c0 fd d4 bc ea c7 37 3d 0a e4 29 3d
       0.036217697 -0.025999904 0.044868387 0.04147724
000080 21 79 2f bd 48 11 6b 3d 59 9b 3d bd f7 fb fb bc
       -0.042840127 0.057389528 -0.04629073 -0.030759795
000090 c0 9c 60 3d 26 e1 9f bc 75 72 a8 bc f6 c5 d8 3c
       0.05483699 -0.019516539 -0.02056239 0.026461583
0000a0 22 1c 49 bd 49 64 55 bc 19 05 0a bd 35 17 11 bc
       -0.049099095 -0.013024398 -0.033696268 -0.008855631
0000b0 18 da 77 3d 06 d1 fa bc d9 14 5c bd a5 c2 c4 3b
       0.060510725 -0.030617248 -0.05373082 0.0060046487
0000c0 0c c9 a3 bc cd 3c 28 3d 31 91 07 bc 22 51 ac 3d
       -0.019993328 0.04107361 -0.008274362 0.08413912
0000d0 7a 30 9d bd b0 8c c7 bc 68 70 76 bd 20 16 75 3c
       -0.07675262 -0.024359077 -0.060165793 0.014958888
0000e0 c9 8b 64 3d 06 ec ac 3c 65 07 e1 bc 82 c0 ed 3c
       0.055797372 0.021108638 -0.027469346 0.029022459
0000f0 02 58 04 bb 22 e8 89 bd 6c 82 93 3c 42 9d a0 3d
       -0.0020194058 -0.06733729 0.018006526 0.078424945
000100 c3 f5 a2 3c b0 c1 5b 3d d9 8e de bc ca 35 9b bc
       0.019892579 0.05365151 -0.027167724 -0.018946547
000110 fb e8 2c 3d 5e 2b 81 3c 40 0e 3b bd 45 98 4e 3b
       0.042214375 0.01576775 -0.045667887 0.0031523865
000120 f3 57 0e bc 1b b8 d3 bc 92 05 05 bd ce 79 ba 3c
       -0.008687961 -0.025844624 -0.032476015 0.02276316
000130 5c ed 9f bd b3 0a b5 bd f0 48 a0 3c 49 7d b3 bd
       -0.078089446 -0.08839931 0.01956603 -0.087641306
000140 48 a3 8e bd 10 de 34 3d a5 6e 65 bd c8 90 e8 ba
       -0.06964737 0.044157088 -0.056013722 -0.0017743343
000150 cf 21 b9 bc e1 df 01 bd 28 77 0f bd 16 76 02 bc
       -0.022599129 -0.03170765 -0.035025746 -0.007962724
000160 82 7e 8e 3d 2a bf a4 3d a4 ec 97 3c 15 78 1d 3d
       0.06957723 0.08044274 0.018545456 0.038444597
000170 ca 7b 6d bd 26 e6 73 bd 15 6e d0 3c bc 32 04 3d
       -0.057979383 -0.05954566 0.025443116 0.032274947
000180 4d b9 76 bd fd 92 b0 3d 62 08 9d 3d 01 81 85 3d
       -0.06023531 0.08621786 0.076676145 0.06518746
000190 03 bb 50 bc f0 e5 03 bd 66 e6 4f 3d ab 8b 1a bc
       -0.0127399 -0.032201707 0.050756834 -0.0094327135
0001a0 78 e5 18 3d 37 c8 9f 3c 91 91 b4 bc 52 7b 56 bd
       0.037328213 0.01950465 -0.022042068 -0.0523637
0001b0 a7 d1 83 3d df dd 8c bd 10 71 bf bc be 74 0e 3d
       0.064364724 -0.06878256 -0.023369342 0.034779303
0001c0 ef 79 4d bd 5f 4e 93 bc 18 88 8f 3d 26 ca c7 ba
       -0.050165113 -0.017981706 0.0700838 -0.001524274
0001d0 9a e8 31 3d cb a6 83 3d 46 c3 58 bd d8 c5 ae bc
       0.043434717 0.064282976 -0.052920602 -0.021334574
0001e0 da b4 96 bd 2c d0 41 3d 25 ee 06 3d 65 82 94 3b
       -0.073587134 0.04731767 0.032941956 0.004532146
0001f0 bb a9 7b 3d 9f d3 07 3d bb b9 9e bd 76 73 d5 3c
       0.061441164 0.033160802 -0.07750269 0.026056033
000200 c9 35 8d bd 5d 46 ad 3d a0 c9 6c 3c 22 4c 46 bd
       -0.06895024 0.08460686 0.014452368 -0.04841245
000210 bb 65 e1 3b f5 15 9c 3c a7 9d 04 bd 94 da 69 bc
       0.0068785823 0.019053439 -0.03237691 -0.0142733045
000220 02 5e bf 3c b4 6f 99 bc 22 63 5d bd cf 7d 9f 3c
       0.023360256 -0.018730022 -0.05404962 0.01946917
000230 e3 49 f7 bc 9c 5f a8 bc 93 8e 65 bd 23 1d e9 3c
       -0.0301866 -0.020553403 -0.056044172 0.028456276
000240 73 9e 34 3c e5 67 ba 3d d7 85 13 bd 21 e5 44 3d
       0.011024105 0.091018476 -0.03601631 0.048070077
000250 cf 29 82 bd a6 e0 99 3d 5a 50 05 3d 35 4e 4a bd
       -0.063556306 0.075135514 0.032547332 -0.04939099
000260 14 0e 36 3d 54 d6 ec 3c dc ec a1 bc dd 9e 72 bc
       0.04444702 0.028910793 -0.019766264 -0.014808384
000270 c4 41 4c 3d a0 b9 30 bc 8f c6 66 3d c9 ba 99 3c
       0.049867406 -0.010786444 0.056341704 0.018765824
000280 02 cc 75 bd de 39 b6 3d 53 d6 59 bd 97 d7 87 bc
       -0.06000901 0.08897756 -0.05318291 -0.016582293
000290 56 23 b3 bc 28 79 4b 3d 94 de 48 3c 39 c6 b3 3d
       -0.021867435 0.04967609 0.012260098 0.08778042
0002a0 4e 73 90 3c 75 a3 15 3c 70 23 4b bd d8 94 26 3d
       0.017633107 0.0091332095 -0.049594343 0.040669292
0002b0 07 ba 89 3d ab 02 ad bd a6 b1 bb 3b 49 d7 b4 bd
       0.06724935 -0.084477745 0.0057279645 -0.08830125
0002c0 4e d8 03 bd c3 92 ae bd 60 56 ba bd 18 37 01 bd
       -0.032188706 -0.08524086 -0.09098506 -0.031546682
0002d0 6d d3 90 3d d9 7d a4 3d e2 8e 77 bd 36 9f a0 3d
       0.07071576 0.08031816 -0.060438998 0.07842867
0002e0 01 47 58 3d 23 98 fb 3a ad 4a 1f bc 1d 4f 2b bd
       0.05280209 0.001919512 -0.009722394 -0.041823495
0002f0 13 a2 7b 3d 25 1d 9b bc ae 54 92 bd 51 05 92 3d
       0.061433863 -0.018934796 -0.071450576 0.0712992
000300 e4 e1 21 3d 7f ba b7 bd f8 52 21 bc dd ff 47 bd
       0.039522067 -0.08971118 -0.009846441 -0.048827995
000310 7d aa 39 bd ac 11 b4 3c 49 12 e6 bc b1 1e 0a bd
       -0.045328606 0.021981083 -0.02808489 -0.033720676
000320 9b 65 2a bd e3 f5 94 3d b8 38 62 3d 13 ed 45 3d
       -0.041600805 0.07273462 0.055229872 0.048321795
000330 5d 10 78 3c f6 59 88 3d 08 04 b0 3d 12 54 96 3d
       0.01514062 0.06657784 0.08594519 0.07340254
000340 0d e8 c1 3c 65 67 30 bd 89 c2 a0 3c ec 1c 69 bc
       0.02367022 -0.043067355 0.019624012 -0.014228087
000350 96 f3 8e 3d 5b 99 9b 3d dd 79 32 bd 9a cf 35 bc
       0.06980054 0.075976096 -0.04357325 -0.011096859
000360 a7 6d 71 bc 6e f6 bc 3d 7a 78 d3 bc a1 8d d2 3c
       -0.014735616 0.0922669 -0.025814284 0.0257023
000370 f3 5f 93 bd 88 ea 64 bd c4 c7 70 3d c9 41 04 3d
       -0.07196035 -0.05588773 0.05878426 0.0322893
000380 2f 90 6e bd f5 0c a9 bd 8d 8b b3 bc 43 fd fe bc
       -0.058242973 -0.082544245 -0.021917129 -0.031126624
000390 1d 86 38 3d cb b8 6b 3d d7 55 89 3d 24 87 a4 3d
       0.045049775 0.05754928 0.06705826 0.080335885
0003a0 75 f5 b9 3d af 54 8d bd 69 31 5f bd 00 3c b9 bb
       0.0908002 -0.06900918 -0.05449048 -0.0056529045
0003b0 b4 d8 58 3c 80 7d 6d bd 05 3c 9c bc fa 01 4e bd
       0.01323526 -0.057981014 -0.019071588 -0.050294854
0003c0 eb 70 46 bd 6a 46 12 bc 11 58 a1 bd f8 9b bd 3a
       -0.04844753 -0.008927921 -0.078781255 0.0014466038
0003d0 e0 49 4a 3d 59 ca 65 bd 1d 35 27 3d f3 95 6b 3c
       0.04938686 -0.056101177 0.040822137 0.014379012
0003e0 0d 0b a1 bd 5e 83 53 bd f9 d8 2b 3b 73 b4 97 bd
       -0.07863436 -0.051638953 0.0026221855 -0.07407465
0003f0 c0 c7 98 bd cd b4 57 bd 05 30 83 3d 67 dd 86 3d
       -0.07459974 -0.05266266 0.064056434 0.06585198

conv2.lin_l.weight f4 [128, 128]
000000 2a a5 8b bd b1 97 7c bc 92 37 35 3d 57 25 51 bb
       -0.06818612 -0.015417025 0.04424245 -0.0031913125
000010 8e 5d 03 3b c0 e3 2a bd 93 9a 07 3c cd 7a 1e 3d
       0.0020044777 -0.041721106 0.008276599 0.03869133
000020 82 1a da bc 72 af b2 3c f6 f5 ad bd a5 7e 8a bd
       -0.026623968 0.021812174 -0.08494179 -0.06762437
000030 30 9c d9 3c 05 eb 9a 3d c0 3c 5f bd 88 44 9a bc
       0.026563734 0.07564358 -0.054501295 -0.018831506
000040 1e 17 76 bd 27 0a 87 bc 67 c7 05 3d 66 16 65 bd
       -0.06008064 -0.016484333 0.032660868 -0.055929564
000050 36 12 8d bc c2 3d 8f bd 39 31 a5 3c e4 d8 68 3d
       -0.017220598 -0.06994201 0.020165073 0.056847468
000060 4b e0 17 bd 63 2d 56 bc a6 c7 5a bc 1d 96 7e 3c
       -0.037079137 -0.0130723445 -0.013353264 0.0155387195
000070 89 c7 a9 bd 67 fb 9b 3d 46 6e 49 bd 3a 36 59 3d
       -0.082900114 0.076163106 -0.04917743 0.05303023
000080 31 13 fb 3c a6 82 6b bd 26 8a 76 bd 6b 64 94 3d
       0.0306488 -0.057497643 -0.060190342 0.07245716
000090 e7 44 7d bd ec 41 88 bd 05 79 94 39 88 07 8b bd
       -0.06183329 -0.066531986 0.00028318926 -0.06788546
0000a0 5f a2 4c bd 2c 5b 95 3d e6 37 51 3d a2 dd 41 bc
       -0.049959537 0.0729278 0.0510787 -0.011832627
0000b0 13 a6 45 3c 7d db dc 3b bd 37 85 bd cb e3 91 3d
       0.012063521 0.006740032 -0.06504772 0.07123526
0000c0 81 ef 3c 3d 5c 38 61 ba d9 59 92 bb 5c 5a cb 3c
       0.046126846 -0.0008591467 -0.004466277 0.02482336
0000d0 c1 21 8e 3d f5 5f 51 3d 04 4d 66 3d b8 98 de 3a
       0.06940032 0.051116902 0.05622579 0.001698277
0000e0 32 7c 44 bb 3b f7 45 3d 31 54 a6 bd a6 3d 8e 3d
       -0.0029981253 0.04833148 -0.08121527 0.06945352
0000f0 83 71 ae bd 9d 7d 67 bc f4 13 27 bd e7 5e 54 bc
       -0.085177444 -0.01412907 -0.040790513 -0.01296208
000100 2d 5e 77 3a ca af b6 bd fa 2b 1b bd 78 c4 6d 3a
       0.00094363355 -0.08920248 -0.037883736 0.00090701086
000110 65 0b 3a bc 1b d8 83 bd 13 a2 aa 3d c7 cc 8b bd
       -0.011355256 -0.06437703 0.083316945 -0.068261676
000120 22 07 89 bd 01 a6 0e bd 58 98 1a bd 41 d6 8c 3d
       -0.066908136 -0.034826282 -0.037742943 0.06876803
000130 c5 de af bb 82 17 20 3c cd bc e7 3c 1c 38 e2 bc
       -0.0053671324 0.00977123 0.02828827 -0.027614646
000140 a6 e7 7b 3d cc 6c b8 3d 8e c7 a7 bd 42 b6 0d 3d
       0.061500214 0.09005126 -0.08192359 0.034597643
000150 81 d0 88 bd 63 62 3d 3d e3 90 8e bb ee 85 4d bd
       -0.06680394 0.046236407 -0.004350768 -0.050176553
000160 0b 54 a0 bd b2 a0 6e bd 9c b5 0d 3c c2 64 15 ba
       -0.0782853 -0.05825872 0.008649256 -0.0005698913
000170 34 95 bd 3c 8e ac ff 3c a0 f9 6d bd d5 81 d4 bc
       0.023142435 0.03121021 -0.05809939 -0.025940815
000180 64 30 6b bd 85 03 18 bd 47 92 9d bd dc 35 f7 3b
       -0.057419196 -0.03711273 -0.07693916 0.0075442623
000190 84 21 e9 3b c1 fa 5d 3c 82 39 92 bd 3a a3 8d bd
       0.007114591 0.013548554 -0.07139875 -0.069158986
0001a0 3a b4 54 3d 37 82 17 3d 80 49 3c bd e3 c3 da 3c
       0.05192969 0.036989417 -0.045968533 0.026704734
0001b0 87 00 2a 3d 29 c4 a8 3d 0c df f6 bc 04 40 90 bc
       0.04150441 0.082405396 -0.030135654 -0.01760865
0001c0 5b 89 a7 bd b9 0b cb bc 0c cd 07 bd ab 43 a9 3d
       -0.08180495 -0.024785863 -0.033154532 0.0826486
0001d0 1d d0 61 bd 8b b9 17 bd f9 5b a1 bd 55 1a 47 3d
       -0.055130113 -0.037042182 -0.078788705 0.048609097
0001e0 e4 74 ea 3c 58 8f e1 bc dd 6c aa bd 6d 2c 3c 3b
       0.02862019 -0.027534172 -0.08321545 0.0028713003
0001f0 3a 2f b0 3d 32 55 59 3d 0e 72 39 b9 9b 18 99 3d
       0.08602758 0.053059764 -0.00017685464 0.07475396
000200 60 a5 c2 3c b1 34 4c 3d a3 10 c8 3c 6b 7a 20 bd
       0.023760498 0.049854938 0.024421996 -0.039179247
000210 f6 41 32 3d bb 9c e2 bc d8 6b cd bc 81 f2 28 bd
       0.043519937 -0.027662626 -0.025075838 -0.041246895
000220 d5 9f ee 3c e3 11 a4 bc 90 ce 60 3d 29 e9 51 bd
       0.029128948 -0.02002806 0.054884493 -0.05124775
000230 c7 e7 8d bd a5 f3 ac 3d 8e 12 1f bd 4a ac 29 3d
       -0.06928974 0.08444909 -0.038836055 0.041424073
000240 ed 81 b1 3d e9 02 7b 3d aa 38 a3 3c 75 bc b6 3c
       0.086673595 0.061282072 0.01992448 0.02230666
000250 d8 5c 2e 3d ac 24 c7 bc b5 ed 7a 3d a1 68 38 3c
       0.04256901 -0.024309479 0.06126185 0.011255414
000260 88 13 5f bc 4e 3c 71 3d d7 76 21 bd ff 96 86 bd
       -0.013615496 0.0588954 -0.039419975 -0.06571769
000270 4b 14 09 3d 43 22 f7 3c 78 c4 11 bd b9 10 81 bd
       0.03346662 0.030167704 -0.035587758 -0.06302018
000280 10 a1 5a 3d 2b 07 32 bd cc 4d 5c bd da c4 3d 3c
       0.053376257 -0.043463867 -0.05378513 0.011582578
000290 9f 9f 94 3d e8 cc 1b bd 08 16 9f bd ac 11 70 3d
       0.07257008 -0.03803721 -0.07767874 0.058610603
0002a0 15 9f 9b bc 0b 38 cb 3c cb 6b 36 bb 52 01 50 3d
       -0.018996755 0.024806997 -0.0027835246 0.05078251
0002b0 9d 01 a2 3c cf dd 0f bd 70 66 10 3d 29 8a 9d bd
       0.01977616 -0.035123643 0.035253942 -0.076923676
0002c0 9d 5e 61 bd 00 56 ae bd e7 f6 35 3d ac e4 45 bd
       -0.05502187 -0.08512497 0.044424918 -0.04831378
0002d0 a0 72 c9 bd d9 cb 84 bd 26 fb 67 bd c7 3b 2c bd
       -0.09836316 -0.06484193 -0.056636 -0.042049196
0002e0 49 84 2d bd fb 97 8f 3d fb 35 85 3d 8c aa ba ba
       -0.042362485 0.0701141 0.065044366 -0.0014241501
0002f0 c9 48 89 bd 78 79 62 bc 60 c1 52 bd c3 83 3b bd
       -0.06703336 -0.013822906 -0.051453948 -0.045779955
000300 eb f6 ff bc 92 92 9c 3d f1 79 bd 3c b4 7b 4e 3d
       -0.03124567 0.076451436 0.023129435 0.05041094
000310 34 59 ec 3c ef 0f 0a bd df 6c 28 3d 93 44 1f 3d
       0.02885113 -0.0337066 0.041119453 0.038883757
000320 15 ec a1 bd 25 9f bd ba 0c 4c 4c bc c9 5e 85 bd
       -0.07906357 -0.0014466984 -0.012469303 -0.065122195
000330 b4 ea 59 bd 4d c4 0a bd fa 36 e6 bc 5a e9 cb 3b
       -0.053202346 -0.033878613 -0.028102387 0.006222886
000340 b0 99 90 3d cd d4 a5 bd 9e 80 99 bd 62 ef 20 3d
       0.070605636 -0.08097229 -0.07495235 0.039290793
000350 42 4c 69 bd ee 3b 48 bd fe 67 9b 3d 79 0c 3e bd
       -0.05695749 -0.04888528 0.07588194 -0.046398614
000360 67 29 b3 bc 4a 8b 97 3c 06 d8 66 bd b8 3d 58 3d
       -0.021870328 0.018499035 -0.05635836 0.052793235
000370 c0 01 ba bd bb c0 1b bd e7 6f 50 bd 88 83 a1 3c
       -0.09082365 -0.0380256 -0.05088797 0.01971604
000380 9c ab d5 bd d8 a7 95 bc 95 74 98 bd 6f 11 e5 bc
       -0.104331225 -0.01826851 -0.07444111 -0.027962415
000390 05 fc c0 bc 55 c5 13 3c e0 52 82 bd 6b 07 1a 3d
       -0.023557672 0.009019216 -0.063634634 0.03760473
0003a0 4a e3 a4 3d 79 84 a8 bd 9c eb d2 3b 9e 3b 92 3d
       0.080511644 -0.08228392 0.006436778 0.07140277
0003b0 2b bb a1 3d a0 72 19 bd 97 92 81 3d 93 6b 8a 3c
       0.078970276 -0.03746283 0.06326788 0.016896999
0003c0 eb e4 82 bc 85 c0 9c 3d 80 e0 1b 3d ee f9 5e bd
       -0.015978297 0.07653908 0.038055897 -0.05443757
0003d0 dd ca 37 3d 4d d5 80 3d b4 08 17 3d a6 83 e5 3c
       0.0448712 0.06290684 0.036873534 0.028016876
0003e0 a4 cf 20 bd 82 c8 58 3d dd f0 9f bc da 32 d1 bc
       -0.03926052 0.052925594 -0.019524032 -0.025536943
0003f0 e4 52 12 bd be f1 9b bd 3c d7 b9 bc 24 16 dd 3c
       -0.035723582 -0.07614468 -0.02268564 0.026988097

conv2.lin_l.bias f4 [128]
000000 77 74 1b 3d 12 28 a5 bd 94 10 af bd f3 e3 7f bc
       0.037952866 -0.080642834 -0.08548084 -0.015618312
000010 3c e3 82 bd 2e 60 12 bd 81 a1 9e bd c5 34 a7 3c
       -0.06390998 -0.035736255 -0.07745648 0.020410905
000020 a3 95 9b 3c 52 49 62 3d df ab ff bc f5 44 16 3c
       0.01899225 0.055245705 -0.031209884 0.009171714
000030 2c 86 aa bd 63 94 80 3d 23 0c a0 3d a2 fe 3a 3d
       -0.083263725 0.062783025 0.07814815 0.045652993
000040 cc a4 33 3c 2a b2 20 3c e9 72 a9 bb 98 38 61 3c
       0.010964584 0.009808103 -0.005171169 0.013746403
000050 e7 1d a2 3d 18 fc 63 3d da 0b c2 3c 5f a5 da bc
       0.0791586 0.055660337 0.023687292 -0.026690183
000060 e1 e3 cf bc 3d 6b 4f 3d 20 1e 7a bd c2 75 0f 3d
       -0.025377216 0.05063938 -0.061063886 0.035024412
000070 37 3f 9a 3b ae 5e 42 bd 8a c3 8b bd ed c1 ba ba
       0.004707243 -0.047453575 -0.068244055 -0.0014248468
000080 a1 23 9c bb a8 69 bc bd 07 dd d8 3c ba 9d 47 3d
       -0.0047649895 -0.0919984 0.026472582 0.048734404
000090 97 f6 85 bc 0d bc ab bd 28 11 92 3c 32 f4 a0 3d
       -0.016352935 -0.08385477 0.017830446 0.078590766
0000a0 63 95 04 3c 14 95 25 3d bf c6 ac bd 32 86 06 3d
       0.008092257 0.040425375 -0.08436345 0.032842822
0000b0 e8 27 b1 bc fa f5 f5 bb 83 5e 60 bd e1 10 fa 3b
       -0.021625474 -0.0075061293 -0.054777633 0.0076314067
0000c0 2d ce 60 bd 9c 00 a6 bc 16 ac af 3d 66 7a 85 bd
       -0.054884125 -0.020263962 0.08577745 -0.06517486
0000d0 5b 65 04 3d 0c 71 9f bd dd 45 1d bd 52 61 be bc
       0.032323223 -0.07785234 -0.038396705 -0.023239765
0000e0 99 a6 c7 bd 01 3f 3f 3c f8 da 8f 3c a9 55 95 3d
       -0.09748573 0.011672736 0.017560467 0.07291729
0000f0 67 e1 3d 3d 6b 5f 80 3d a2 f9 54 3c 0c 65 0f bd
       0.04635754 0.062681995 0.01299897 -0.035008475
000100 8d 41 1c 3d 19 5d 95 3d eb 0d 36 3d 63 f3 33 bd
       0.03814845 0.072931476 0.044446867 -0.043933284
000110 2a e4 9f 3d d2 6f 90 3b 43 e9 9b 3d b9 80 a8 bd
       0.07807191 0.0044078613 0.076128505 -0.08227677
000120 4a c0 6d bd c7 96 13 3d 95 38 9c bd ef fb 15 3d
       -0.05804471 0.036032464 -0.0762798 0.036617216
000130 62 2b 28 bb df 26 37 3d 7f c1 51 3c 0c 47 93 3d
       -0.0025660624 0.044714805 0.012802481 0.071912855
000140 95 6d 43 3d 81 5a 96 3d 2f b1 44 bd f5 43 5f bc
       0.047711927 0.07341481 -0.048020538 -0.013627042
000150 a3 3f 47 bc d2 17 7f bd 5b 2c 9b 3d 61 64 f1 3b
       -0.012161168 -0.062278576 0.075768195 0.0073667024
000160 31 c8 77 3b ff 1b 46 bd 1d bf 34 bd 29 b8 21 bd
       0.0037808532 -0.048366543 -0.044127572 -0.03948227
000170 d6 af 58 bd 60 bd 23 3d e8 33 1d bb 7e d5 af bd
       -0.052902065 0.039975524 -0.0023987237 -0.08585642
000180 05 45 ad 3c df 4f 66 3d 7a 87 8b bd ef 89 4d 3d
       0.021151075 0.056228515 -0.068129495 0.05018037
000190 a7 a3 95 3d a1 de b5 bd a0 7a 70 bd 94 26 0b bc
       0.07306605 -0.08880354 -0.058710694 -0.008493084
0001a0 26 14 c2 bc 69 54 83 bd 9f 5a 74 bc 6b f8 03 bd
       -0.023691248 -0.06412584 -0.014914184 -0.03221933
0001b0 d4 cd 29 3c 40 6a 46 bd 8b ef a2 3d e0 13 8e 3d
       0.010364015 -0.04844117 0.079558454 0.069373846
0001c0 95 a9 3f bd 67 cf 81 3d 72 54 5d bd 75 8f a6 bb
       -0.046792585 0.06338387 -0.05403561 -0.0050830194
0001d0 c4 43 14 ba 71 f9 5e bd a7 a3 20 3d 99 40 4d 3d
       -0.000565585 -0.054437105 0.03921857 0.050110433
0001e0 ac 17 57 bd e5 9b 6a bc d8 e6 39 3d 6f ba 69 3d
       -0.05251281 -0.014319395 0.045386165 0.057062563
0001f0 e5 5a 96 bd fc 32 6e bd 34 bd e6 bc 39 51 0a bd
       -0.073415555 -0.05815409 -0.028166391 -0.033768866

conv2.lin_r.weight f4 [128, 128]
000000 f7 a2 2e bd d9 be 95 3d bd 59 8d 3d 51 df 54 3d
       -0.042635884 0.07311792 0.06901882 0.051970784
000010 6b f6 30 3c 6e cf a3 bd e1 38 2b 3d 5a 10 c3 3c
       0.010800938 -0.079985484 0.04180229 0.023811508
000020 3b 8d cc 3a 6b 14 0c bb d7 fb 91 3d 5b e3 47 bc
       0.0015606055 -0.0021374475 0.07128113 -0.012200202
000030 45 f7 f0 bc 37 00 ad 3d c8 d4 3b bd e8 93 3d 3d
       -0.029414782 0.084473066 -0.04585722 0.046283633
000040 a8 63 80 3c 7b 14 62 3d dd e1 8e bb f2 d8 6c b9
       0.01567252 0.055195313 -0.004360421 -0.00022587532
000050 ad 9c eb bc 6f c3 b3 bc 5c 3a 3d bd 2b 70 a2 bd
       -0.028761232 -0.021943776 -0.046198234 -0.079315506
000060 7e d3 84 3d 7d b9 81 bc 4a f2 10 3d 65 95 4a bd
       0.064856514 -0.015835518 0.035387315 -0.04945888
000070 dc af 67 3d aa fa fb 3c 95 2a 5e 3c 82 79 92 bd
       0.056564197 0.030759174 0.013559957 -0.07152082
000080 3f 71 99 bd 1e 86 52 3c a5 c9 31 bd 7f cf 8f 3d
       -0.07492303 0.012849359 -0.043405194 0.070219986
000090 b8 7c 27 3d d9 92 ae bd 02 f9 9a bd ee fb 6b 3d
       0.040890425 -0.08524103 -0.07567026 0.057613306
0000a0 7d 94 1b bd 7d 50 48 bd e8 5a 53 3d 3c c1 8c 3d
       -0.037983406 -0.048904885 0.051600367 0.06872794
0000b0 ad c7 d0 3d b9 42 8a bb 7c 52 45 bd 46 48 31 bd
       0.10194335 -0.0042193797 -0.048174366 -0.043281816
0000c0 6b 58 49 3c ff 2d 34 3d 56 ff 67 3d f4 8f 53 bc
       0.012289147 0.043989178 0.05663999 -0.012912739
0000d0 f0 a4 6f 3d c4 6c 07 3d f7 43 ab bb ad ee f5 3c
       0.058506906 0.03306271 -0.005226608 0.030021036
0000e0 c5 68 29 bd f1 92 b5 3d 6c 6b aa bd b1 00 3b bd
       -0.04135968 0.088659175 -0.0832127 -0.045654956
0000f0 12 52 98 bd 21 84 6a bd 72 d6 00 3d fd d3 ca 3c
       -0.07437529 -0.057254914 0.03145451 0.024759287
000100 73 b0 88 3c b4 13 5b 3d d2 a4 ab bd 08 f4 68 3c
       0.0166857 0.053485587 -0.08381046 0.014218338
000110 1a 53 0c 3d 23 8b 89 3d 5a d7 c9 bb 7c c7 40 bd
       0.03425894 0.06715991 -0.006159705 -0.047065243
000120 db 47 82 bd c0 2f 78 3d 1d fd 84 3d ab aa 76 3d
       -0.063613616 0.060592413 0.0649359 0.060221355
000130 f0 22 9d bd ac d1 1b bd 21 a1 fd 3c 90 97 3e bc
       -0.076726794 -0.038041756 0.030960621 -0.011632815
000140 d9 3e 61 3d 7b ee b0 bc 94 00 48 3d 28 94 1e 3b
       0.054991577 -0.021598091 0.048828676 0.0024197195
000150 e7 51 8f bd f7 9c 28 3d ee cc 51 bd 32 de c9 3c
       -0.069980435 0.04116532 -0.051220827 0.024642084
000160 02 65 c5 bc b9 90 bf bd c6 3e a5 3d 7a b8 a6 bd
       -0.024096016 -0.093537755 0.08068614 -0.08140655
000170 f6 36 9a 3d 22 5e 0e 3d a7 b6 a7 3d 05 c8 8d 3d
       0.07530014 0.03475774 0.08189135 0.06922916
000180 1e 2f 00 3c 63 d1 45 3d a9 8d 48 bd 49 9e b5 3d
       0.007823734 0.04829539 -0.048963223 0.08868081
000190 16 5e 26 bd e3 51 e8 bb 27 d6 34 3d 8b 01 80 3d
       -0.04061707 -0.00708984 0.044149544 0.06250294
0001a0 65 d0 5c bd 42 27 84 bc f6 b6 37 bd 7e 22 a1 bd
       -0.053909678 -0.016132 -0.04485222 -0.07867907
0001b0 46 d1 2e bd 9d 78 79 bd 5a 11 a3 bd 38 fe 6e 3d
       -0.042680047 -0.06090604 -0.07962294 0.05834791
0001c0 23 1d 18 bc 6a c0 a2 bd 4c 6c b0 3c 51 0d b4 3b
       -0.0092842905 -0.07946856 0.021536015 0.0054947515
0001d0 53 80 11 3d 3e fc 6f 3d b8 5b ed 3c 6c d5 b6 bd
       0.03552277 0.058590166 0.028974399 -0.08927426
0001e0 6e b7 43 bd ea d3 81 3d 45 e5 1f 3d 4f 77 1c bd
       -0.047782354 0.063392475 0.039037008 -0.03819972
0001f0 f6 6b 55 bd 89 38 11 bc 83 fb dd bc df 88 66 bc
       -0.052104913 -0.008863577 -0.02709747 -0.014070719
000200 b8 7a 93 bc 5d 77 c9 b8 00 db 9f 3d c3 c3 0f ba
       -0.018002853 -9.60666e-05 0.07805443 -0.0005484188
000210 2c e9 5a bd 06 00 e5 ba 9b c2 80 3d 57 7d 91 3d
       -0.053445026 -0.001747132 0.06287118 0.07103985
000220 b0 a6 99 bd 5a 6f b0 bd 60 e7 2d 3d cc ec 7f 3d
       -0.07502496 -0.086149886 0.042456985 0.062481686
000230 09 18 29 3d fa 46 a8 3b 7c b6 97 bd 3c 87 83 3a
       0.041282687 0.005135414 -0.07407853 0.001003481
000240 50 2e 74 bd 7f 00 c1 3c 43 56 31 3d 4a 54 05 3d
       -0.05961448 0.023559807 0.043295156 0.032551087
000250 9e 92 e4 bc 60 26 be bd 83 f0 51 3d 80 3c 90 3d
       -0.027901944 -0.09284663 0.05125476 0.070427895
000260 ac 40 83 bc d1 6e b5 bd 0d 75 b8 bd ce a8 a2 3d
       -0.016022049 -0.08859027 -0.09006701 0.07942353
000270 f6 d0 44 bb ac 7e 3a 3d 1f 7d 89 3d bf ce 25 bc
       -0.0030031777 0.04553096 0.06713318 -0.010120093
000280 dd 4b 35 3d e1 7d ee ba 0a 56 c2 3c d4 d9 9d 3d
       0.044261802 -0.0018195474 0.023722667 0.07707563
000290 bc 33 98 bc af b2 f7 bc 2b 73 07 3b 95 a3 a5 3c
       -0.018579356 -0.03023657 0.002066801 0.020219604
0002a0 a1 99 5c 3c 68 bc a7 bd 3e 8b 9f 3d 3e fb 77 3d
       0.013464362 -0.081902325 0.0779023 0.060542338
0002b0 b0 9c 57 3a 59 87 b0 bb a2 2d df 3c 39 bc 4f 3c
       0.00082249474 -0.0053872284 0.02724344 0.012679153
0002c0 3c a8 79 bd 12 00 ac 3c 7d 7d 4a 3b 7c 01 4f bd
       -0.060951456 0.020996127 0.003089755 -0.050538525
0002d0 f3 3e 81 3c cb d6 99 3d e8 eb 6b bd a5 ce d7 3a
       0.015777087 0.07511672 -0.057598025 0.0016464783
0002e0 b0 1f a5 bd 79 c0 73 3d 36 c3 9c bd ad 1f 10 3d
       -0.080626845 0.059509728 -0.07654421 0.03518646
0002f0 3f b1 59 3d a7 c1 80 bd 23 16 98 3b 46 a1 6a bd
       0.05314755 -0.06286936 0.004641311 -0.05728271
000300 e6 68 a4 bd c0 ee 53 bd c6 f3 a3 bc 2b 8b b4 bd
       -0.0802782 -0.05174136 -0.020013701 -0.08815607
000310 cb d7 d2 ba 15 ee ae bd 0e d8 49 39 23 6a 36 bd
       -0.001608604 -0.08541504 0.0001924934 -0.044534814
000320 60 e1 ab bd 53 6d bc 3d e3 41 47 bd cb bc c5 3b
       -0.08392596 0.092005394 -0.04864682 0.0060344688
000330 0e 04 79 3c ad 69 8f bd 21 20 3b bd 3a 37 3c 3d
       0.015198721 -0.07002578 -0.045684937 0.045951106
000340 d5 4f da 3c d5 f7 a4 bd d4 3d 15 3d 63 58 8d bd
       0.026649395 -0.08055083 0.036435917 -0.06901624
000350 a1 5b 87 3d b2 85 c7 3c 46 96 9a 3d e7 8e 3a 3d
       0.06609274 0.024355743 0.07548194 0.04554644
000360 69 ef 90 bd 3d 92 d4 3c e4 2f 8f bd 6a 95 80 3d
       -0.07076914 0.025948638 -0.06991556 0.062784985
000370 63 36 5d 3c 16 b7 99 bd 35 09 c4 3d c7 7c bc 3d
       0.013501736 -0.07505624 0.095720686 0.09203487
000380 4a e4 ce bd 07 cc c0 3d 16 18 73 bc 7b 2f 93 bd
       -0.101021364 0.09413915 -0.0148372855 -0.071867906
000390 7e 2a 22 3d d6 0c a4 bd b4 65 71 3c a9 b6 82 3d
       0.039591305 -0.08010261 0.014733721 0.06382496
0003a0 c0 27 fb ba 95 82 8f bd 51 32 a8 bc a7 50 2f bd
       -0.0019161627 -0.070073284 -0.020531805 -0.042801525
0003b0 80 f2 06 3d 64 9b e2 3c 9c e2 ce bd cc c8 90 bd
       0.03294611 0.027661987 -0.10101816 -0.07069549
0003c0 8e 4d 1b 3d 39 4b 00 3d 27 a4 7f 3c 0b 90 95 bd
       0.03791576 0.031321738 0.015603102 -0.07302865
0003d0 b8 03 84 bb db 19 46 bd a5 2a a4 bd 10 00 a4 3d
       -0.0040287636 -0.0483645 -0.08015946 0.080078244
0003e0 05 6b ee 3c f7 1a 0d 3d 79 e3 56 bd b0 83 66 bd
       0.029103765 0.034449544 -0.05246303 -0.05627793
0003f0 b3 1d ba 3c 14 44 32 bd 6c ac 8f 3d c4 4c 5d 3d
       0.02271924 -0.043521956 0.07015309 0.054028288

conv3.lin_l.weight f4 [128, 128]
000000 8f 2e a5 3d 0c e1 82 bd 94 c6 4f bd 15 4c 2f 3d
       0.08065521 -0.063905805 -0.05072649 0.042797167
000010 62 cc 05 bd 1d d2 a8 bd d5 42 85 3d 1a db 52 3d
       -0.032665618 -0.08243201 0.06506888 0.051478483
000020 35 30 08 bd 49 b3 8e bd a5 2a 9b bd 65 7b 94 3d
       -0.0332491 -0.0696779 -0.07576493 0.07250098
000030 46 b5 16 3a a8 10 95 bd 5b 30 47 bd c6 60 97 3d
       0.0005749058 -0.072785676 -0.0486301 0.07391505
000040 6a 48 85 3d 26 cd 8c bd 37 98 13 3c 89 f9 ba 3b
       0.065079525 -0.068750665 0.009008459 0.0057060164
000050 e7 d4 68 bd f3 2c 44 3c fa ce b7 3d dd 2f 60 3c
       -0.056843664 0.011973607 0.089750245 0.0136832865
000060 4f 35 0e 3d 96 42 a3 bd e4 5b 3d 3d 90 e7 a6 3d
       0.034718808 -0.07971685 0.04623021 0.08149636
000070 2a 25 8c bd a7 fd cd 3d 23 f4 9f bd 14 99 6b bc
       -0.06843026 0.10058146 -0.07810237 -0.014379758
000080 97 0c 84 3d 4f 2e 44 bd 0f 01 a7 bd 22 98 29 bd
       0.06447714 -0.047895726 -0.08154499 -0.04140485
000090 71 a1 6b bd 74 6e 18 3d 84 1f 3d 3d 52 d8 66 3d
       -0.05752701 0.03721471 0.046172634 0.056358643
0000a0 52 cb 2b 3d dc ad 6a 3c d6 2f ff bb bd 62 17 ba
       0.04194195 0.014323678 -0.007787685 -0.0005774906
0000b0 6d 22 c9 bc f6 c3 02 bc 0e 62 0c 3d 4b 24 79 3d
       -0.024552548 -0.007981291 0.0342732 0.060825627
0000c0 71 87 9a 3d e8 9e a3 3d 6c 28 e7 3c f2 43 29 3d
       0.07545365 0.07989293 0.028217517 0.041324563
0000d0 e2 71 3e bd b3 de 28 3d c5 2d 00 bd 01 a1 9f 3d
       -0.046495326 0.041228008 -0.03129365 0.07794381
0000e0 45 05 b2 bd ca 9e ac bb 9a a9 b1 bd f8 e8 2d 3d
       -0.08692411 -0.0052679526 -0.08674927 0.042458504
0000f0 a9 7a 0a 3d 60 d3 1b 3d 94 7a 9e 3d f8 1d 36 3d
       0.033808384 0.03804338 0.07738224 0.044462174
000100 b0 3b ac 3d 0b 1f 77 3d 6c 60 11 3d f7 56 1d bd
       0.08409822 0.06033234 0.035492346 -0.038413014
000110 f1 81 a8 3d 61 bc 97 bd 1d df 01 bd d9 bd 44 bd
       0.08227909 -0.07408977 -0.031706918 -0.048032615
000120 86 4a 6f 3d 4b 3f 8a bd a9 81 f0 bc b4 da da 3d
       0.05842068 -0.067503534 -0.029358702 0.106862456
000130 90 32 0c 3d 44 a5 6f 3d 6e 94 b7 39 45 0f b4 3d
       0.034227908 0.05850722 0.0003501507 0.08791975
000140 88 35 f3 bb 96 45 65 3d ed c7 7a bd 86 25 46 3d
       -0.007422153 0.055974565 -0.06122582 0.04837563
000150 6d a1 a6 3d b1 cb c9 3b b1 a6 1e bd 42 7b 37 3c
       0.08136258 0.006158315 -0.038733188 0.011198821
000160 3b 1b 7f bc 07 4d 4b bd 71 74 91 3d 2b 6f 77 3d
       -0.015570457 -0.049634006 0.071022876 0.060408752
000170 d4 aa 92 3d ea 1c d3 3c 9f 73 8f bd 85 2f fe bc
       0.07161489 0.025770623 -0.07004475 -0.031028518
000180 82 7c 39 3d f4 f5 51 3c f8 65 84 3d 8f c8 ce 3d
       0.045284756 0.012814987 0.064647615 0.10096847
000190 02 42 8c 3d e8 23 68 bd 64 2c c1 bc 15 74 65 bc
       0.068485275 -0.056674868 -0.023580737 -0.014004727
0001a0 64 ce 51 3b 99 ad 3e 3d a3 cd aa bc f5 ad 38 3d
       0.0032013888 0.046552274 -0.020850008 0.045087773
0001b0 2b c1 72 3d 90 36 99 3d f4 6c 5b 3a 7a b3 13 bd
       0.05926625 0.0748111 0.00083704223 -0.036059834
0001c0 22 00 e7 bb 49 d8 fd 3c 44 26 99 bd 28 cf 4c bd
       -0.0070495764 0.030986922 -0.07478002 -0.050002247
0001d0 c6 64 46 3a 31 f4 79 3d fe 38 0d bd 24 ed 89 bc
       0.0007568117 0.061023895 -0.03447818 -0.01683671
0001e0 c8 93 26 bd 48 33 56 bd fc ce 36 3d 90 18 4e bd
       -0.04066828 -0.052295 0.04463099 -0.050316393
0001f0 d7 34 1f 3d 7a c1 3f 3d 3d 36 2e bd eb d5 a2 3d
       0.03886875 0.046815373 -0.042532194 0.07950958
000200 9b 52 27 bd cf 69 93 bc c1 80 bd 3d d2 9c bc 3c
       -0.040850263 -0.01799479 0.092530735 0.023023997
000210 e2 af 89 3a 4f b1 46 3d 82 cd 61 bd d3 79 ed bc
       0.0010504688 0.04850894 -0.05512763 -0.028988754
000220 d9 16 00 bc 89 55 39 bd 4e 04 9b 3d e5 4c 9e 3a
       -0.007817947 -0.04524759 0.075691804 0.001207736
000230 bf a2 98 bc f8 53 1c 3d f4 30 4e 3d dc e4 aa 3d
       -0.01863229 0.038166016 0.050339654 0.08344433
000240 28 f3 98 bc 26 75 96 bd 69 12 85 bc a0 f9 6c bd
       -0.018670633 -0.07346563 -0.01624413 -0.05785525
000250 48 18 46 3d 3f 24 4c 3d 09 a0 7c bd 60 bb 1a bd
       0.048363 0.049839254 -0.06167606 -0.03777635
000260 74 8b f9 3c 9e 02 a7 3d 63 2d 53 3d 6d 81 7c bc
       0.030462004 0.08154796 0.051556956 -0.015411717
000270 0f f2 99 3d cd f8 82 bd 11 cd a8 bb f9 51 fd bc
       0.07516872 -0.06395111 -0.005151399 -0.030922877
000280 5b f1 95 3d 90 43 ec bc 74 ba ec 3c b7 f6 82 bd
       0.073214255 -0.02884081 0.028897502 -0.06394713
000290 15 ba 7b 3d 3a 3d 2f bc bd d3 5c bd 52 5d 47 3c
       0.06145676 -0.01069575 -0.053912867 0.012168245
0002a0 44 3c 84 bd 60 2c 77 3d c1 b3 4d 3c da 15 a2 3d
       -0.06456807 0.060345054 0.012555064 0.07914324
0002b0 fe 4d 9a bd 13 00 9c bd c3 db 0c 3c bf c1 13 bd
       -0.07534407 -0.07617202 0.008597317 -0.036073443
0002c0 37 8a 83 3d 0b 67 10 bd 11 24 89 bd 12 6f 9d 3b
       0.06422847 -0.03525452 -0.06696332 0.0048045004
0002d0 b5 a1 2a bd 9b 7d 36 3d f0 f0 37 bd 83 9c 11 3c
       -0.041658122 0.04455338 -0.04490751 0.008887413
0002e0 c1 ab ca 3a 17 2e ad bd 5e b0 0b 3d bb 74 17 bd
       0.0015462564 -0.084560566 0.034103744 -0.036976557
0002f0 e1 d4 5c 3d 99 a5 0a bd 88 ad df 3c 72 4e ac bc
       0.053913955 -0.033849332 0.027304426 -0.0210335
000300 61 31 87 bc 05 80 49 bd 3a aa 94 3d f0 67 d2 3d
       -0.016503038 -0.049194355 0.07259031 0.10273731
000310 88 8f ab 3b 4d 9a a1 3c 64 7b a5 3d b3 76 79 bd
       0.005235616 0.019726897 0.080801755 -0.060904216
000320 8b f8 fb 3c 58 39 83 bd 6d 18 ef 3b e1 67 7b bd
       0.030758163 -0.06407422 0.007296613 -0.061378364
000330 85 55 94 bd fe cc e7 3c 88 3a 65 bd 14 78 13 3c
       -0.07242874 0.02829599 -0.055964023 0.009000797
000340 5d 18 eb bc 91 77 a1 bd 64 19 9f bd 5e 82 b0 bd
       -0.02869814 -0.078841336 -0.07768515 -0.086186156
000350 c2 25 29 3c 27 33 7f 3d 1d 05 50 bd 04 e9 ff bc
       0.010323944 0.062304642 -0.050786126 -0.03123904
000360 12 d4 11 3c f7 b9 34 3d 82 34 00 3d 7b ad 9a 3d
       0.008900659 0.044122662 0.031300075 0.0755262
000370 12 8e d1 bc 83 e0 91 bd 58 58 4c bd 4d fb 55 bd
       -0.02558044 -0.071229 -0.04988894 -0.052241612
000380 f4 23 2a 3a 5d db 87 bd 9f 8f 7a 3d 86 38 80 bd
       0.0006490343 -0.06633637 0.061172124 -0.06260781
000390 ef 9d 92 3c 57 0b ac bd 20 66 5d bd 6f 2f f1 bc
       0.017897574 -0.084006004 -0.054052472 -0.029441563
0003a0 10 08 15 bd d3 45 98 bd d4 b1 89 3d 5a 42 90 3d
       -0.036384642 -0.07435193 0.06723371 0.070439056
0003b0 a1 d8 8b 3d 6a 36 6a bb 8c 69 35 3d 10 b6 75 bd
       0.06828428 -0.0035738 0.04429011 -0.05998808
0003c0 18 90 b3 bc 99 24 8a 3b e3 6f 99 3d 77 1d 96 3d
       -0.021919295 0.0042157886 0.07492044 0.07329839
0003d0 89 a9 90 3d ea 71 0a 3d 08 0a b8 3d 20 63 99 3d
       0.07063586 0.033800043 0.08986288 0.0748961
0003e0 19 ac 88 bc 9b 60 b0 3c 85 3f 55 bd a0 f0 5d 3d
       -0.016683625 0.02153044 -0.05206253 0.054184556
0003f0 a7 6a a8 bd 70 f8 83 3d f7 8a 87 bd ae 31 32 3d
       -0.08223467 0.0644387 -0.06618302 0.04350441
