skill_net-GCN-14-0.825194627437027-0.784551629854317-0.3887104392051697.pth (torch, 326017 bytes, 9 tensors)

pre_embs.weight f4 [110, 128]
000000 0f ac 16 3f 6d e5 67 bf 34 5c 95 bf 84 5c 8d bf
       0.5885629 -0.9058445 -1.1668763 -1.1043859
000010 fa 20 96 3e 83 f0 4e bf dc 8f 31 3d 1c ac 27 bf
       0.29322034 -0.8083574 0.043350086 -0.65496993
000020 ea e8 ac 3e 8d 82 86 bf 89 e1 01 40 95 5e 23 3f
       0.3377145 -1.0508591 2.0293906 0.63816196
000030 1c 5a f4 bf 3b b7 01 be 1d a7 90 bd d7 a4 67 bf
       -1.9089999 -0.12667553 -0.07063124 -0.904859
000040 3f e2 06 3e ac 88 84 3f f6 0b b9 bd fb d7 cb 3f
       0.13172244 1.0354209 -0.090354845 1.5925287
000050 3d 26 48 3e 26 f7 e6 bf b4 74 16 3e 10 64 d0 3f
       0.19545837 -1.8044174 0.14692956 1.6280537
000060 cd 44 86 bc 18 a9 cf 3f 56 c5 38 c0 3a 26 aa 3d
       -0.016390229 1.6223478 -2.8870444 0.083080724
000070 75 0d bd 3f f8 23 57 bf 44 e0 2a 3b 27 b8 7d 3f
       1.4769732 -0.8403926 0.0026073614 0.9910912
000080 36 8f 7f 3d 56 8c 21 bf 9a fe 5a be 54 60 2c 3f
       0.062392436 -0.6310476 -0.21386185 0.67334485
000090 92 4e b3 bf 95 5f c0 3f e5 60 fc 3e 8d 11 b9 be
       -1.4008353 1.5029169 0.49292675 -0.36146203
0000a0 5b b3 dc 3e 2e 7b 89 3f fa 7b ac be 3b 37 2c bf
       0.43105587 1.0740716 -0.33688337 -0.67271775
0000b0 6e da 87 3e d3 69 15 3e 62 17 2b 3f 8d 36 06 bf
       0.26533836 0.1459115 0.66832554 -0.5242699
0000c0 3f b8 3f bf e0 a7 b4 3d d6 93 c3 bf 37 bf c0 3f
       -0.7489051 0.08821082 -1.5279491 1.5058354
0000d0 34 56 87 3f b2 7a 44 bf 25 1d 4b be 9e 9f 48 be
       1.0573182 -0.7674972 -0.19835337 -0.19592139
0000e0 2a d7 50 be 81 bc 75 3f cb a5 c5 bf 9e 55 7b bf
       -0.20394579 0.9599076 -1.5441221 -0.98177516
0000f0 77 8d 89 be c2 04 a0 bf 49 d5 9f 3f 3f ec 53 bf
       -0.26865742 -1.2501452 1.2486964 -0.8278236
000100 80 23 5d 3f a6 d0 77 bd f2 26 ba be 2b 54 40 3f
       0.86382294 -0.060501717 -0.36357838 0.7512843
000110 5a b3 ef 3e 9a 92 8a 3d 8b c1 c9 be aa 36 39 3f
       0.46816522 0.06766243 -0.39405474 0.72349036
000120 4d 92 4d 3f 25 a7 d1 bf eb 94 8e bf 29 2a 50 c0
       0.8030136 -1.6379133 -1.1139196 -3.2525733
000130 49 c0 ab be d1 0d 22 bf 42 89 2c bf 0e 88 99 3e
       -0.3354514 -0.6330233 -0.6739694 0.29986614
000140 80 e3 b7 bf 9c 12 d0 be 46 59 e5 3e b0 2b 8e 3f
       -1.4366302 -0.40639198 0.44794673 1.1107082
000150 36 8e 66 3f 0a 4a 9a 3d b9 5f 2e bd e2 bb c6 be
       0.90060747 0.07533653 -0.042571757 -0.38815218
000160 00 21 a2 bf 84 e6 f8 bf e1 44 40 3f 62 59 21 40
       -1.2666321 -1.9445348 0.751051 2.5210805
000170 80 86 8c 3f d9 e2 f0 3d 56 dc 5d bc 14 bf d1 3e
       1.0978546 0.11762018 -0.013541302 0.40966094
000180 db ea 52 3e ba f3 e4 bf dd 10 a8 bf 66 2f a5 3f
       0.20597403 -1.788688 -1.3130146 1.290509
000190 0d 7d 31 3f 16 9a 0c 3e ab 4d f7 3e 94 5d 9f 3f
       0.6933144 0.13730654 0.48301443 1.2450433
0001a0 16 f7 0c bd 36 65 6a bf 3c 78 0a 40 93 7f 0a 3f
       -0.034415327 -0.91560686 2.1635885 0.5410091
0001b0 37 ed 98 be 58 d1 a5 3f 6e 3e 40 3e aa 88 99 3f
       -0.2986848 1.2954512 0.18773815 1.1994832
0001c0 f7 f5 51 be 1b 32 c8 bf 78 2a a0 3e 0e 44 09 3f
       -0.20503984 -1.5640291 0.312824 0.5361947
0001d0 8e 75 8f 3f a3 ba e1 3e d8 c6 1d 3f db 26 ca bf
       1.120775 0.44087705 0.61631536 -1.5793108
0001e0 6e 80 91 3f 5a d9 d6 3e 7f 75 22 be 68 23 6d be
       1.1367319 0.419627 -0.15865134 -0.23158038
0001f0 5b 72 42 bd d5 fa ea 3e 97 34 c8 3c de ca 6c 3f
       -0.04747234 0.45894495 0.02443914 0.9249705
000200 c3 64 21 bf 3a a7 d3 be e7 41 24 bf 27 b0 0f 40
       -0.63044375 -0.4133852 -0.6416306 2.2451265
000210 96 19 f1 3e 47 1b 50 3f aa bf 3e bf 1d fe e4 bd
       0.47089833 0.8129162 -0.74511206 -0.11181281
000220 a1 49 0c bf ff 8d 8e 3f 40 52 ce bf fa e2 17 bf
       -0.5479985 1.1137084 -1.6118851 -0.59330714
000230 74 a4 9e 3e 99 19 1b bf f3 8a 27 3f d3 3b 6c bf
       0.30984843 -0.60585934 0.65446395 -0.92278785
000240 af 46 22 3f c6 9e ce be 88 d5 5c 3f d5 75 c9 be
       0.63389105 -0.4035551 0.8626332 -0.3934771
000250 18 50 29 3f 34 d2 3e bf d5 6e c9 3e 81 bc 3f bf
       0.6613784 -0.74539495 0.3934237 -0.7489701
000260 8f d7 11 3f 99 b3 66 3e f9 d8 72 bf f0 9a 37 be
       0.5696954 0.22529449 -0.94862324 -0.17930198
000270 30 1c 0b be b0 95 2b c0 7b 38 ac be 16 ea 83 3f
       -0.13584971 -2.6810112 -0.3363684 1.0305812
000280 dd 6d 10 3f 0f f6 a7 3d 29 00 9d 3f 01 91 16 be
       0.5641764 0.08201229 1.2265674 -0.14703752
000290 5d 3d c7 bf df ff 6a bf 30 1e 15 3f 89 b4 26 3e
       -1.5565602 -0.9179668 0.5824919 0.16279806
0002a0 ac e8 a0 3e df 3a c2 be d2 d2 33 bf 07 88 90 bf
       0.31427515 -0.3793554 -0.7024356 -1.1291512
0002b0 5d b6 6e 3c f2 dd 91 bf 2e 4e bf 3e de 02 1d be
       0.014569846 -1.1395857 0.37364334 -0.15333125
0002c0 f2 af c6 bf 00 73 fc 3e 2d 77 b8 bf c9 b9 48 3f
       -1.5522444 0.49306488 -1.441137 0.78408486
0002d0 93 68 09 be f7 27 b7 3f 6d 96 50 3f 33 b1 c9 be
       -0.13418798 1.4309071 0.8147953 -0.39393005
0002e0 5a 4f 06 c0 17 15 99 3f 24 fe 48 bf 28 6b a6 bf
       -2.0985932 1.1959561 -0.7851279 -1.3001451
0002f0 81 74 64 3e 0a 60 91 3c 2d 64 e3 3f 2f fc 38 be
       0.22310068 0.01774599 1.7764946 -0.1806495
000300 14 70 4a bf 57 a1 e1 3e 8d 43 a5 3f 30 0d 8f 3f
       -0.7907727 0.44068405 1.291124 1.11759
000310 04 5c 9d bd 53 fa c1 bf 53 00 d3 bf 2b 77 5d 3f
       -0.07683566 -1.5154518 -1.6484474 0.8650996
000320 eb d3 81 be 17 85 2a bf c0 bf 60 3f 31 71 dc 3f
       -0.25356993 -0.6660933 0.8779259 1.7222043
000330 29 a6 7b bf ae 2f e5 bf ee 66 fa 3e 46 89 29 3e
       -0.98300415 -1.7905176 0.48906654 0.16556272
000340 15 05 91 bf 5a 53 47 bf 30 26 99 bf d2 77 88 bf
       -1.1329676 -0.7786156 -1.1964779 -1.0661566
000350 94 18 90 be 11 3c ff 3d 7b 0c 42 bf 38 09 32 be
       -0.28143752 0.12462629 -0.75800294 -0.17386329
000360 a6 b1 17 3f 98 4a 99 bf 7f 52 fc bf 2b ea f7 3d
       0.59255445 -1.1975889 -1.9712676 0.12105211
000370 78 14 e0 bf 8b a1 a2 bf 93 a8 7f bf 4e bc 84 3f
       -1.7506247 -1.2705549 -0.998666 1.0369966
000380 c8 d0 3a 3c 7d 7d 8b bf 0f 0e d6 be 47 1a e7 be
       0.011402316 -1.0897671 -0.418076 -0.45137236
000390 c1 de 26 3f 49 06 e3 3f 97 d4 29 3e ff 15 7d bd
       0.65183645 1.7736293 0.16585003 -0.061788555
0003a0 30 86 2d 3f a3 86 2b 3e 8a eb b0 bf 59 d7 58 bf
       0.6778288 0.16750579 -1.3821881 -0.84703594
0003b0 5c ff 8c 3f 51 b1 a3 3e 03 0c 94 bd 49 97 1b 3f
       1.101543 0.3197122 -0.072288536 0.6077772
0003c0 cb ef d4 3e 48 a8 f0 be c8 18 cc bf 8e b1 d6 be
       0.41589198 -0.47003388 -1.5945063 -0.41932338
0003d0 31 38 26 3c 73 b0 05 bd 85 a8 50 bf 23 2b df bf
       0.010145233 -0.03263898 -0.8150714 -1.7435039
0003e0 03 ae 11 3f 9b 74 e9 be e7 ba 9d be 84 fe 8b bf
       0.56906146 -0.45596775 -0.30806658 -1.0937047
0003f0 8c 15 e3 bf 50 e4 02 be 4b 9a 9f 3f 2e a2 8b 3e
       -1.774095 -0.12782407 1.2468961 0.2727217

conv1.bias f4 [128]
000000 ee 27 1c bb d9 60 6f 3b 33 74 bf ba a7 6f 79 bc
       -0.002382751 0.0036526232 -0.0014606774 -0.015224374
000010 cb cb 7d 3b 5a 08 0f bc 50 24 bc bb b9 15 31 ba
       0.0038726206 -0.0087300185 -0.0057416335 -0.0006755251
000020 79 69 03 3b 4d 90 80 bb 9e fd 3b 3b 57 7d 15 bc
       0.002005188 -0.003923452 0.0028685103 -0.009124122
000030 e6 8c 5a bc 9f 90 85 bb 83 39 21 bc 71 cf 87 bb
       -0.013339257 -0.004076078 -0.009840372 -0.004144602
000040 63 33 98 bb f7 8e fc bb 36 75 98 bb 62 6c 68 b9
       -0.0046447976 -0.0077074724 -0.0046526445 -0.0002216562
000050 c4 33 04 bc 69 37 79 bb 9e 14 de 3a d3 b0 4e ba
       -0.0080689825 -0.0038027412 0.00169434 -0.0007884625
000060 70 f2 1b bc a9 9d 2f bb 9a ef 84 ba 6c 49 5b bc
       -0.009518251 -0.0026796854 -0.0010142208 -0.013384204
000070 66 f7 df ba 54 f6 9d 39 23 e5 f6 bb b3 77 08 3b
       -0.001708728 0.00030128902 -0.0075346394 0.00208233
000080 81 8c 6c bb 05 b2 da bb 53 d1 36 bc 7e 4a ba bb
       -0.003609449 -0.0066740536 -0.011158305 -0.0056851497
000090 a0 49 71 bc 37 d3 0e bc 03 85 02 bb 31 04 a7 bc
       -0.014727026 -0.00871735 -0.0019915707 -0.02038774
0000a0 0b b7 85 ba cf 65 29 bc c1 1d 46 bc 2f a8 99 b9
       -0.0010201646 -0.0103392145 -0.012092055 -0.0002930774
0000b0 21 b7 99 bb ce 1f 65 bc fa 4a 29 bb 16 64 bf bb
       -0.00469102 -0.013984634 -0.0025832043 -0.0058407886
0000c0 43 3a 58 bc 51 da 4b bc 8c 45 ea 3a 72 84 31 bb
       -0.013197484 -0.012442187 0.001787351 -0.0027087
0000d0 9c 6f 90 bb 91 b6 ce bb 91 32 c2 bb ae 4f 1d bb
       -0.004407836 -0.0063083847 -0.005926438 -0.0024003792
0000e0 1b 0b 89 3b 1d a3 f0 bb 4a c8 36 bc f9 50 36 bc
       0.004182232 -0.0073436634 -0.011156151 -0.011127704
0000f0 29 28 01 bc 96 bf e2 ba 02 21 c7 bb 15 85 56 bb
       -0.00788311 -0.0017299529 -0.006076933 -0.0032733132
000100 00 19 25 bc a9 bd b5 39 34 c7 b9 bb 02 da 3b bb
       -0.010076761 0.00034664318 -0.005669499 -0.0028663878
000110 b8 bb 0a bc 33 ab eb bb be e4 1d bb df b0 12 bc
       -0.008467607 -0.0071920394 -0.002409264 -0.008953302
000120 5d 5a a9 3b bb ac a9 bb f4 d8 91 ba c2 36 40 bc
       0.005168243 -0.005178062 -0.0011127279 -0.011731805
000130 e1 bd 27 bc 7a 36 3b ba e7 12 04 3b 37 d5 a2 bb
       -0.010238142 -0.00071416015 0.0020152868 -0.004969265
000140 92 89 5d bc ce ed 4b bc df d9 9d bb 4f 74 39 bc
       -0.013521569 -0.012446834 -0.004817232 -0.011319234
000150 33 a9 37 ba 1f 65 00 bc b7 63 0c bc 70 7a bc bb
       -0.00070061086 -0.007836609 -0.008568696 -0.0057519004
000160 cd 92 f0 ba 36 e4 c0 bb 05 20 66 bc 4c 6a ee 3a
       -0.0018354297 -0.00588658 -0.01404572 0.0018189638
000170 68 36 09 bb b6 4a 3e bb c1 1c 16 bc ae 1b 54 bc
       -0.002093697 -0.002903623 -0.009162129 -0.0129460525
000180 0c 95 56 3c 80 e9 5b bc 25 99 53 bc b8 93 a7 bb
       0.013097059 -0.01342237 -0.0129149305 -0.005114045
000190 20 e0 49 bc 7f 43 ad bb 4e d0 3d bc 60 03 85 bc
       -0.012321502 -0.005287587 -0.011585308 -0.01623696
0001a0 05 7d 36 bc b9 3b d1 ba 8d 38 a5 b9 60 01 bf 3a
       -0.011138205 -0.0015963233 -0.00031513386 0.0014572553
0001b0 4c eb 39 bb 71 01 67 bc ba f0 25 ba 7a 32 8d bb
       -0.0028369008 -0.014099465 -0.00063301215 -0.004308996
0001c0 4c a1 e6 3a 77 65 bf bb 92 d8 f6 ba 1a 5f 08 bc
       0.0017595678 -0.005840953 -0.0018832854 -0.008323455
0001d0 fb 11 3b bc 40 7b 79 ba 11 d9 02 bb a0 b8 de 3a
       -0.011417861 -0.0009516962 -0.0019965807 0.0016992278
0001e0 5e ab 50 bb 54 29 0d bb f2 d2 04 bc eb 6b 94 ba
       -0.0031840424 -0.0021539526 -0.008106934 -0.0011323666
0001f0 38 5f 87 3a e2 e8 46 3b ca 69 c4 ba df 4b 35 3b
       0.001032806 0.0030351211 -0.0014985141 0.002766363

conv1.lin.weight f4 [128, 128]
000000 a4 51 34 bd 72 a3 1e 3d a9 8f 48 3d 35 6b b3 bb
       -0.04402317 0.038730092 0.04896513 -0.0054754266
000010 85 fb e5 3d ad 30 f4 bd ac 40 35 bd d5 1e c8 bb
       0.11229614 -0.11923347 -0.04425113 -0.006107191
000020 5e e2 0a be f1 da 22 be ea 01 b1 3d f6 62 f1 bb
       -0.13562915 -0.15903832 0.08642943 -0.0073665334
000030 b9 88 91 bd 51 2f 10 3d ab 6d 94 3d 57 79 86 bd
       -0.07106156 0.035201374 0.0724748 -0.065661125
000040 24 0a 17 be 2e 72 87 bd ed 38 08 bc 12 0f 4f 3d
       -0.14749962 -0.06613575 -0.008314353 0.05055148
000050 1c bc ff bd c3 f0 39 3d b8 25 b8 3c cf ab 0a be
       -0.12487051 0.045395624 0.022478923 -0.13542102
000060 75 97 f7 3c d5 23 f0 3d 52 92 10 3d 33 56 0f bd
       0.030223588 0.117255844 0.035295792 -0.034994315
000070 6c 43 07 3e 5c 2a 03 3e af 4a dd 3d 2b e1 0d be
       0.13209313 0.12809128 0.108052604 -0.13855426
000080 6f da 06 be d7 d9 bb bd e9 39 51 bc 24 e6 02 3e
       -0.13169263 -0.09172409 -0.0127701545 0.12783104
000090 6a ab 4a 3c 30 68 c3 3c fe 24 e1 bc 22 5e fe 3d
       0.01236997 0.023853391 -0.02748346 0.12420298
0000a0 e1 4e b7 bc 29 a8 32 3c 66 09 76 3d 28 f4 c5 3c
       -0.02237648 0.01090435 0.060067557 0.024164274
0000b0 ab b1 71 3d 24 e0 fd bd 6c 42 44 bd 41 15 aa 3d
       0.059007328 -0.12396267 -0.047914907 0.08304835
0000c0 f1 8d 32 be b7 e6 fa 3d 17 b0 b7 ba 90 32 e1 3d
       -0.17436959 0.122510366 -0.0014014271 0.10995972
0000d0 c0 f7 e8 3d 4c f2 fb 3d 24 d5 6e 3d 32 0d bb bd
       0.113753796 0.12302074 0.058308735 -0.09133376
0000e0 81 9d 17 3e b0 25 78 bd 12 ec 9e bc 68 ec fd 3d
       0.14806177 -0.060582817 -0.019399676 0.123986065
0000f0 e8 fd a4 bd 9b 23 1f be 64 dc 74 bd 01 52 0c bd
       -0.08056241 -0.15540926 -0.059780493 -0.034257893
000100 89 12 dc bd 8f cb 59 3d cf 79 d0 bc 97 dd 36 bd
       -0.10745723 0.053172644 -0.025448708 -0.04464492
000110 c4 81 59 bb 77 a1 9f bd 3c ac 9e bd 0b 07 ec bc
       -0.0033188919 -0.07794469 -0.07747695 -0.028811952
000120 12 98 03 be 8e 2b 5b bd 43 bd 14 3e 15 35 d9 3d
       -0.12850979 -0.053508334 0.14525323 0.10605828
000130 76 e5 cf 3d c4 78 34 bd 58 8c 2b bd f2 76 bd bc
       0.10151188 -0.044060484 -0.04188189 -0.023128007
000140 e4 8f f7 bd ec 2d 5b 3c 7d cb b8 bd ef 76 d7 bc
       -0.12087992 0.013377648 -0.09023187 -0.02630183
000150 8b da 3f 3c 73 d1 80 bd df 26 ba 3d 1f f4 c8 3c
       0.01170982 -0.06289949 0.09089445 0.024530469
000160 33 be a3 3d dc 73 12 be 48 f8 84 3d cb fc 8e bd
       0.07995262 -0.1430201 0.064926684 -0.0698181
000170 11 9a 4d bc cd 5f ca bc dd 00 1a 3e 2b c2 87 3d
       -0.012548939 -0.024703884 0.15039392 0.066288315
000180 ba c1 c8 bd a3 81 a6 3d 81 18 c4 bd 0a 09 bb 3c
       -0.098025754 0.08130195 -0.09574986 0.022831459
000190 6e 6e e0 3c ee a9 02 be 07 16 96 3d a6 9a 5a 3d
       0.027396407 -0.12760136 0.0732842 0.05337014
0001a0 d1 2e 58 3d c5 28 45 3d 03 35 83 3d f7 e8 69 3d
       0.052779023 0.048134584 0.064065956 0.05710694
0001b0 2f 90 c2 bb 30 81 8c 3d 44 09 60 bc 4a 46 18 be
       -0.005937598 0.06860578 -0.013674084 -0.14870563
0001c0 86 ef 57 bd e9 67 30 3e 48 3b 1d be 52 eb 8d bd
       -0.05271866 0.17227139 -0.15354645 -0.069296494
0001d0 55 75 e4 3b 5a dc a0 bd 6f 7d a7 bc 12 06 a6 bd
       0.006971995 -0.07854529 -0.020445554 -0.081066266
0001e0 d0 d9 2d 3d 89 47 0f 3d 54 fc b6 3d d1 c2 66 3d
       0.04244405 0.03498033 0.089348465 0.056338135
0001f0 84 37 d9 bd 9e f5 e2 3d f3 5f 1f 3d fc df 94 bd
       -0.10606292 0.11082004 0.038909864 -0.07269284
000200 3a 43 b0 bc f3 82 77 3d 0d dd 03 bd 65 96 ba bd
       -0.021516431 0.060427617 -0.032193232 -0.09110717
000210 0e 64 93 bd 84 ae 84 bd 06 6d 88 3d ec aa 8d 3d
       -0.07196818 -0.06478599 0.066614196 0.069173664
000220 b8 25 a0 bd eb fe 51 bd 70 bb 92 bd 02 ac 83 bd
       -0.07819694 -0.0512685 -0.07164657 -0.06429292
000230 43 9e f2 3d e7 b7 8d bc 62 b3 01 3a 93 59 cf bd
       0.11846592 -0.017299606 0.00049476896 -0.10124507
000240 25 5e e7 3d 76 25 16 3e 07 78 a2 3d 33 fd ce 3d
       0.112972535 0.14662728 0.0793305 0.10106888
000250 ac 2f b2 bd 0e 18 f5 3d 55 6a 5e 3d d2 e6 68 3d
       -0.08700499 0.11967479 0.054300625 0.056860752
000260 22 bf c6 3d 4a 45 de 3d 7a cc b6 bd 15 3b eb 3d
       0.097044244 0.108530596 -0.089257196 0.114858784
000270 ca af 95 bd 41 ab 85 bd 8a 41 46 bb ea 87 b8 bd
       -0.0730892 -0.06526805 -0.0030251467 -0.090102986
000280 2c 2d dc bc 86 4e 1f be e7 56 a1 3d e2 60 72 bc
       -0.026877008 -0.15557298 0.078779034 -0.0147936065
000290 eb fb f4 3d 9c 7f 80 bd 60 94 cc bd 18 86 9e bd
       0.11962112 -0.062743396 -0.09989238 -0.0774042
0002a0 94 17 a6 bd 9f 37 bc bd c8 14 98 bd 85 09 ba 3d
       -0.08109966 -0.091902964 -0.07425839 0.09083847
0002b0 61 c8 e2 3c 21 53 d5 bd c2 84 14 be 8b ca 8e 3c
       0.027683439 -0.10416246 -0.14503768 0.017430564
0002c0 2d 5a 1f bd d2 4b b8 bc a9 dd af 3d d9 09 09 3c
       -0.038904358 -0.022497091 0.085872 0.008364164
0002d0 62 57 0a be c3 bb f6 bc cf a2 bc 3d 32 1c cb bd
       -0.13509896 -0.030118829 0.09210741 -0.09917487
0002e0 16 d2 00 3e ed ce 14 3e 18 5e e8 3c 7b 90 2f bc
       0.12580141 0.14532061 0.02836518 -0.010715599
0002f0 85 3b bf 3d c0 ba 45 3d d5 e3 b5 bd c1 9e 07 3e
       0.09337524 0.0482738 -0.08881346 0.13244154
000300 0a ab e2 3d 83 bc 8b 3c 60 ca 9a 3d c4 54 f9 3d
       0.11067779 0.017057663 0.07558131 0.12174371
000310 7e 1e af bd de ee 88 bd 5a 01 f3 bd 8c a6 a1 3d
       -0.08550738 -0.06686185 -0.11865492 0.078930944
000320 08 30 ff bd 0b 26 2f 3d 04 b7 ea 3d 7b c9 f5 3d
       -0.12460333 0.04276089 0.11460689 0.1200132
000330 22 89 3f bd 1b a3 f5 bd b5 38 34 3d 1d 86 00 be
       -0.04676164 -0.119940005 0.043999393 -0.1255116
000340 01 8e b1 bd b2 70 ca bd 43 1d a4 3d d3 40 00 3e
       -0.08669663 -0.09884776 0.08013394 0.12524728
000350 8f 5f 87 3d b8 00 4a 3d f7 57 8f bd e6 b2 f7 3d
       0.06610023 0.04931709 -0.069992 0.12094669
000360 bd b6 dc bd 5c e4 ea bd bf 25 a6 bd db 4c e3 3c
       -0.10777042 -0.11469337 -0.08112668 0.027746608
000370 29 88 a5 bd 82 77 b9 3d 44 e2 11 be d7 db 20 ba
       -0.08082611 0.090559974 -0.1424647 -0.00061362743
000380 12 bd 8e bb 67 b3 b5 3d 13 e7 2f 3c 62 dd bb bd
       -0.004356035 0.08872109 0.010736245 -0.09173085
000390 e3 ad 8a bc 7e 88 ad bd 21 09 08 3e ad 26 16 be
       -0.016928619 -0.084732994 0.13284732 -0.14663191
0003a0 d6 91 50 3d 29 d1 ce ba bf ef af bd b2 6b 07 3e
       0.05092033 -0.0015778887 -0.0859065 0.13224676
0003b0 47 e3 f7 3d f9 40 fb bd ad 7a c4 bd ff bc f6 bd
       0.121038966 -0.12268252 -0.09593711 -0.12047767
0003c0 22 e1 f4 bd a8 cc 22 bd 56 f9 29 3d 64 d7 65 3d
       -0.11957003 -0.039745957 0.04149755 0.056113616
0003d0 94 b2 54 3d 0b 60 81 bd 8e 35 06 3e ed f7 82 bd
       0.051928118 -0.06317147 0.13106367 -0.06394944
0003e0 5f 7b ec bb 7d f6 cf 3d c4 53 f0 bd f0 b4 a1 bd
       -0.0072168554 0.10154436 -0.11734727 -0.07895839
0003f0 b0 c8 49 bd da d9 de 3d af dc e8 3d 04 a8 50 bd
       -0.049263656 0.10881396 0.11370217 -0.050941482

conv2.bias f4 [128]
000000 58 3d b9 ba 78 37 ae bb 31 38 31 bb d6 0a d8 3b
       -0.0014132662 -0.005316671 -0.002704155 0.0065930886
000010 8b ef 21 bc 31 5d 2a 3c 36 58 b7 bb a3 a9 26 3b
       -0.009883772 0.010398195 -0.0055952324 0.0025430701
000020 c0 43 35 bb 48 d2 46 bc a7 84 43 bb 09 0f 04 3a
       -0.002765879 -0.012135096 -0.0029833706 0.0005037641
000030 c4 32 15 bc 01 59 ce bb 44 49 b0 ba e5 c7 e6 bb
       -0.009106342 -0.006297231 -0.0013449569 -0.0070428723
000040 45 2b 8d bb c3 52 40 bc 8c 0b 39 3b eb cd 7c 3a
       -0.0043081366 -0.011738482 0.0028235642 0.0009643721
000050 fb c0 eb ba 5f 2e 27 3b 22 18 89 bb 8a 4b aa bb
       -0.001798659 0.0025509817 -0.004183785 -0.0051969932
000060 40 89 71 bb 3e 36 3c 3b 6d 77 3f 3b 7c f3 06 bc
       -0.003685549 0.0028718854 0.002921547 -0.008236762
000070 ff 8d f8 bb 32 b8 24 ba 28 3f b6 3b 9e ff f4 3b
       -0.0075852866 -0.0006283551 0.005561728 0.007476761
000080 56 d6 57 bb f7 17 12 3c 21 de 2c bb bb 03 80 3a
       -0.003293415 0.0089168465 -0.0026377516 0.0009766737
000090 eb d6 38 3a 53 92 b6 ba 5e b8 3a bb b1 1a 41 bc
       0.0007051068 -0.0013929106 -0.002849124 -0.011786149
0000a0 02 99 d3 3b 7d cc 16 bb 0b b3 83 3c 32 85 0a 3c
       0.006457449 -0.0023010068 0.016076585 0.008454608
0000b0 ad f6 2a bc 4f ac e7 bb 79 34 76 3a 8a d2 a3 bb
       -0.010434789 -0.0070701013 0.00093919743 -0.0049994634
0000c0 1b 5c 5e bb 7d e3 5d 3c 0b 03 31 bb 3d d9 8c 3a
       -0.003392941 0.013543007 -0.002700987 0.0010745894
0000d0 08 58 51 3c 0a 87 26 bc 12 ee f8 bb eb 02 df bb
       0.012777336 -0.010164032 -0.0075967396 -0.006805768
0000e0 f8 f1 b2 3b 9e 74 db bb 56 e9 dc 3b a3 6c 0b bb
       0.005460974 -0.0066972515 0.006741683 -0.002127447
0000f0 dd 79 b3 bb 20 45 2b bc d6 43 92 bb 8e a5 ec 3b
       -0.0054771737 -0.010453492 -0.004463653 0.007221884
000100 4d 1c 46 bc 49 d5 dd 3a 9a ce 87 bc 85 00 13 bb
       -0.012091708 0.0016924526 -0.016578007 -0.002243073
000110 8e 31 5d bc 60 30 ab bb 5e a6 a6 bb b0 31 ce 3b
       -0.013500584 -0.0052242726 -0.0050857505 0.0062925443
000120 e5 17 28 3a 57 77 41 bb 5c 2e bd 3b 98 76 6b bb
       0.0006412252 -0.0029520595 0.0057733487 -0.0035928842
000130 41 f6 99 bb e9 29 83 39 30 9a 46 bc 19 71 27 3b
       -0.004698545 0.00025017493 -0.012121722 0.002554959
000140 44 cd ec 3b 69 0e eb bb bb 84 35 3b 33 f0 f6 3a
       0.007226618 -0.0071733487 0.0027697522 0.0018839895
000150 2e 9a d5 bb 9a 45 16 bc 45 6a cd 39 65 9f b0 bb
       -0.006518624 -0.009171868 0.00039179824 -0.005390095
000160 f8 31 3e 3c be 33 8f 3a 47 3d bf 3a 68 e4 23 bc
       0.011608593 0.0010925455 0.0014590406 -0.010003187
000170 7e 8f a6 3b 4c e8 34 3b 97 fb c7 bb 61 da 18 ba
       0.0050830236 0.002760428 -0.00610299 -0.0005830881
000180 53 9b 26 3a 0c ff b4 3a fe 9f 81 bc 86 08 40 bb
       0.00063555426 0.001380892 -0.01582336 -0.0029301955
000190 b2 12 3f bc 62 45 36 38 7d 36 e6 ba ef 5f e4 3b
       -0.011662172 4.34568e-05 -0.0017563846 0.006969444
0001a0 26 ff c8 bb 66 98 dc b9 25 4d c5 bb 3b 02 29 3a
       -0.0061339317 -0.00042075216 -0.0060211592 0.0006447171
0001b0 5e 50 b7 bb 16 1e 3f bb 58 01 9e 3b 8c f8 c8 3b
       -0.0055942973 -0.002916222 0.0048219375 0.0061331447
0001c0 6f 7c b9 bb 0a d6 0d bb 2d 1a 8c bc cb 9b da ba
       -0.0056605856 -0.002164247 -0.017102325 -0.001667851
0001d0 6f fd 97 bb 75 14 2c 3b c1 a5 fd bb 2e a2 bc 3a
       -0.004638366 0.002625731 -0.0077407067 0.0014391595
0001e0 0c 15 ad 3b f2 5e 28 3a ff 1c d6 bb 48 ab a8 bb
       0.00528205 0.00064228394 -0.0065342183 -0.0051473714
0001f0 2a ea aa bb 9d 4c 0a bc 77 e4 b8 37 1e f7 89 b9
       -0.005215903 -0.008441118 2.2040897e-05 -0.00026314793

conv2.lin.weight f4 [128, 128]
000000 d5 6a 0b 3e 2b 13 a5 3d 73 f6 ce bd d0 a2 26 3c
       0.13614972 0.080602966 -0.101056 0.010170653
000010 7f 2d ea 3d bc 8e 2f bd e3 c1 47 3b d6 3c 0b be
       0.11434459 -0.04286073 0.0030480556 -0.13597426
000020 94 08 7c ba 6a 1c bd bd a8 87 04 be c6 98 20 be
       -0.00096143153 -0.09233935 -0.12942374 -0.15683278
000030 a2 3e 67 bd 35 0c 06 3c 9d 2d d4 3c 12 90 9d 3d
       -0.056456216 0.008181621 0.025900656 0.07693495
000040 8d 5d 97 3d 73 3c 0c 3e c6 b2 ee 3d aa 32 7c 3d
       0.0739089 0.13694935 0.11655192 0.061571755
000050 c0 38 01 be f6 37 d4 bc ae 2c 14 3e a4 a2 e5 bd
       -0.12619305 -0.02590559 0.14470169 -0.11212662
000060 0f 8a 78 3d 9f 89 08 be ca ea 89 3d b8 72 11 3d
       0.060678538 -0.13333748 0.067342356 0.035509795
000070 8f 9c d9 3d 12 fe fa 3d 50 7b 74 bd d2 b9 07 bb
       0.10625564 0.12255491 -0.059687912 -0.0020710123
000080 36 c2 1c 3e 7e 62 21 bd 61 3f 16 3e b7 65 09 3e
       0.1530846 -0.03940057 0.14672615 0.13417707
000090 c3 04 8f bd 89 23 1c 3e b1 45 71 bd da d9 19 be
       -0.0698333 0.1524793 -0.058904354 -0.1502451
0000a0 33 07 ca bd 7e 52 b6 bc 52 9f dc bd 04 fe ea 3d
       -0.098646544 -0.022256132 -0.107725754 0.11474231
0000b0 66 aa 83 3d 52 d1 62 bd dc 35 8d bd 4d b9 f8 bd
       0.06428985 -0.055375405 -0.068950385 -0.12144718
0000c0 84 38 0f be d2 05 a4 3d b4 d2 20 3b b7 41 9f bd
       -0.13986403 0.08008923 0.0024539651 -0.07776206
0000d0 1b 35 be 3d de f3 5e 3d 84 b1 c9 bd 30 8e e6 3c
       0.09287473 0.05443179 -0.098483115 0.028143972
0000e0 ae 42 e4 bd ca 5e fe 3d d4 ff 30 bd 1a 2d 78 bd
       -0.11145531 0.12420423 -0.043212727 -0.060589887
0000f0 bc e6 13 be 6e 72 08 bc cc 95 d9 bc 77 3d 0b 3e
       -0.14443487 -0.008328063 -0.026560687 0.13597666
000100 6d 2f 26 bd b8 8f ab 3d 4b ae 6b bd fb d1 5a bb
       -0.040572572 0.083770216 -0.057539266 -0.0033389318
000110 97 27 b1 bc 84 a4 00 be af f3 eb 3d 77 12 d0 3d
       -0.021625323 -0.12562758 0.11521088 0.10159772
000120 86 a7 f3 3d b9 dd e1 3d 5f 56 91 3c dd bc 4f 3d
       0.11897187 0.11028618 0.01774138 0.050717223
000130 05 1c 8b bd 3b 51 06 3d 60 9a 73 bd e8 75 06 be
       -0.06792454 0.03279231 -0.059473395 -0.13130915
000140 e6 f4 0f bd 9e ef d0 bd 7b 9e e1 bd c2 cd 3f 3d
       -0.035145663 -0.10201953 -0.11016556 0.046827085
000150 de 2c 0f be 92 b9 56 bd df e9 dd 3c 3a 55 10 3e
       -0.13981959 -0.052423067 0.027089057 0.14095011
000160 b9 d2 14 3e aa 45 86 bd 0c 14 d5 3b 63 dd 89 bd
       0.1453351 -0.06556256 0.006502634 -0.06731679
000170 b0 36 d0 3d ef a7 62 3d 8b 19 49 3d 10 54 6c bb
       0.10166681 0.055335935 0.049096625 -0.0036060847
000180 44 b9 ba bd 94 f6 cb bd 74 ff 03 3b bc 87 cc 3d
       -0.09117368 -0.099591404 0.0020141276 0.09986827
000190 49 37 a0 bd 3a b7 fa bd 4f 6b 15 be 97 69 ac 3c
       -0.07823045 -0.12241979 -0.14591716 0.021046443
0001a0 12 5d 04 be ec ad b8 3d 04 6f 1c bb f0 6d c6 bd
       -0.12926129 0.09017548 -0.0023869881 -0.09688938
0001b0 09 56 ba 3d c9 cc 33 bd 2e 36 ba bd 20 0e b3 bd
       0.09098441 -0.04389647 -0.09092365 -0.087429285
0001c0 33 ca 12 be e0 a4 dd bd ef 02 97 bc b0 7a 04 be
       -0.14334945 -0.10822463 -0.018434016 -0.12937427
0001d0 dc d3 0e be c8 e1 99 3d a1 eb dd bd 1f 1b 1d be
       -0.13948005 0.075137675 -0.10835958 -0.15342377
0001e0 56 77 5c bc e2 0b 6c bd e5 0f 8a bd 57 91 e7 bd
       -0.013456186 -0.05762852 -0.06741313 -0.11307018
0001f0 35 06 84 bc 1d 3c 66 bc 9d df ed 3c 20 b1 2f bd
       -0.016116241 -0.014052418 0.029037291 -0.04289353
000200 6c 90 e9 3c 77 17 a3 3d ef 15 89 3d f4 08 c6 bd
       0.028511249 0.0796346 0.066936366 -0.096696764
000210 88 5e c2 3d 15 e7 bc bc 7e bf e0 bd 30 f4 b1 3c
       0.09490687 -0.023059407 -0.10974024 0.021722883
000220 73 ef 18 be 18 f6 b4 bd f5 87 00 be cf 4b d7 bc
       -0.14935093 -0.08836001 -0.12551863 -0.026281266
000230 32 14 d8 bd 30 0d 07 be fe f4 0f 3e 4a c1 4e bc
       -0.10550727 -0.13188624 0.14058301 -0.012619326
000240 ca 6a 06 bd 67 37 d4 bc 58 0c 76 bc 9a c5 0f 3e
       -0.032816686 -0.025905324 -0.015017591 0.14040223
000250 95 5b e2 bd 31 fb 13 be b8 51 46 3c 35 70 c4 3d
       -0.11052624 -0.1445129 0.012104444 0.09591714
000260 96 d4 00 be 58 31 3d bd 09 7d b7 bc 7b 80 7a bd
       -0.12581095 -0.046189636 -0.022398489 -0.061157685
000270 39 0c 68 bd b5 a1 97 bd 20 9f 4f bc 2c 0b 18 be
       -0.05665228 -0.0740389 -0.012672216 -0.14848012
000280 e0 b9 02 be 5c 5f 0d 3e 52 03 75 3c 5a 0f 85 3c
       -0.12766218 0.13805908 0.014954405 0.016242672
000290 d2 df be bc 9c f6 15 be ba b0 59 3d 48 44 ab 3b
       -0.023300085 -0.14644855 0.053147055 0.0052266456
0002a0 7f 69 6a 3c b4 50 37 3d e4 e0 32 3a d2 a0 89 3d
       0.014307379 0.0447547 0.00068236724 0.06720127
0002b0 0e dd 12 3e c5 53 56 bd 0f 2b 78 bd 99 19 65 3d
       0.14342138 -0.052325983 -0.06058794 0.055932615
0002c0 1d ef 1d 3e d0 fd 89 3d f9 9e 0e 3e 91 fc ab 3d
       0.15423246 0.06737864 0.13927831 0.083977826
0002d0 70 a8 94 3d 1d 34 29 3d 9b 73 7c 3d 38 d1 85 bd
       0.072586894 0.041309465 0.061633687 -0.06534046
0002e0 9f e3 b8 3d 6a 51 30 3c ee ec 8f bb 86 b9 c6 3d
       0.0902779 0.010761598 -0.004392258 0.097033545
0002f0 ac 05 5d 3d 43 7c 13 3e af 41 8c 3c 9b a5 99 bd
       0.053960487 0.14402871 0.017121164 -0.0750229
000300 c8 88 0e 3e 71 09 de bd 0c c3 da 3c b5 f9 cc bc
       0.13919365 -0.108416446 0.026704334 -0.025021413
000310 ed ae a2 bd aa 00 c0 3d 02 2a 8b bc ae 8f dc 3d
       -0.07943521 0.09375127 -0.016987804 0.10769592
000320 a0 25 b5 3d 65 e2 3b bd a7 ca dc 3c a3 db 01 3e
       0.08845067 -0.045870204 0.0269521 0.12681441
000330 c3 59 50 bd c2 fc da 3d 56 b9 8e bd 20 05 fa 3d
       -0.050866853 0.10692741 -0.06968944 0.12208009
000340 70 ad d7 3d d1 f2 ee 3d 45 97 3a 3d 8c b3 a1 bd
       0.105311275 0.11667407 0.045554418 -0.07895574
000350 cb 05 8a bd 6a 05 1d be 49 82 ac bd f2 ec a9 3d
       -0.06739386 -0.15334097 -0.084232874 0.08297147
000360 aa a9 d2 3d 97 36 2a bd 7e 85 56 3d be ee 13 be
       0.10286267 -0.041555967 0.0523734 -0.14446542
000370 8c 94 85 bc fe f4 32 3d 0a fe e0 bd f3 46 05 be
       -0.016306184 0.043690674 -0.10985954 -0.13015346
000380 97 0d 8e 3d 1e 01 b6 3c 65 df d5 bd 9d 88 02 3e
       0.06936186 0.02221733 -0.10443 0.12747426
000390 f3 dd 75 3d e1 0c 98 bd d6 76 cc bd 38 93 06 be
       0.06002612 -0.074243315 -0.09983604 -0.13142097
0003a0 0f 02 a0 bd 37 67 ad 3d f1 98 99 3d b6 a7 a5 3c
       -0.07812893 0.08466952 0.074998744 0.020221572
0003b0 68 56 1c bd 42 55 10 3e 9c ae e7 3d 99 dc 31 3b
       -0.03816834 0.14095023 0.11312601 0.0027139543
0003c0 9d 5d e5 3c 4f 88 11 bd e9 d5 b8 3d e0 63 ef 3d
       0.02799874 -0.035530385 0.09025175 0.116889715
0003d0 13 dc 03 3e 2f be f3 3d b7 64 05 3e a0 f3 e5 bc
       0.1287692 0.11901509 0.13026701 -0.028070271
0003e0 13 59 54 3c a9 d9 d1 bd 9c 72 14 be a0 f1 ec 3d
       0.01296069 -0.102465935 -0.14496845 0.11569524
0003f0 af 60 17 be 20 c5 0f be 57 e4 10 3e e7 15 06 3e
       -0.14782976 -0.14040041 0.14149605 0.13094293

conv3.bias f4 [128]
000000 29 80 5f 3b f3 fc 66 3c da 0a b4 3c fc 07 de ba
       0.003410349 0.014098394 0.02197783 -0.0016939635
000010 51 81 00 bb ad 08 1b 3c c3 ea f1 3c 6d 5f 03 3c
       -0.0019608329 0.009462518 0.029530888 0.008018357
000020 36 8f 87 bc 4b f8 11 3c 37 f3 15 3c e2 d2 82 3b
       -0.01654778 0.008909295 0.009152225 0.0039924243
000030 46 4f a6 3a 71 a7 e6 3a 22 09 8c 3b d3 36 f3 ba
       0.001268842 0.0017597509 0.0042735497 -0.0018555768
000040 bf 75 82 bc 75 b7 e4 bb f8 7e b9 39 19 45 55 3c
       -0.015925286 -0.0069798776 0.0003538055 0.013016962
000050 12 c5 1a bb b7 c1 ae 3c 7e 5a 57 bb 3b f4 67 bc
       -0.0023615998 0.021332605 -0.0032860334 -0.01415735
000060 b0 21 53 bc 30 8b 13 3c 18 57 63 bc 5e 6b e5 3c
       -0.01288645 0.009005353 -0.013875745 0.028005298
000070 85 e9 d5 bb 38 95 52 3b dd 37 1b bc 5a 76 81 bc
       -0.006528082 0.0032132398 -0.009473768 -0.015803505
000080 9a 07 11 bc 76 81 96 3b 11 3b 11 3b a2 31 de bb
       -0.00885191 0.0045930697 0.002216045 -0.006780819
000090 30 71 1b bb 01 ed 8b 3b a6 18 8a 3c 0d f4 9d 3b
       -0.0023718588 0.0042701964 0.016857456 0.004820353
0000a0 d3 76 91 bb 09 d5 ad 3c 06 95 24 3c 2c e0 db bb
       -0.004439214 0.021219747 0.010045296 -0.006710073
0000b0 a7 1f fc bb ab 2e 5c bc f7 10 83 3b bf 1f 0a bc
       -0.007694203 -0.013438861 0.003999825 -0.00843042
0000c0 62 69 5f 3b 79 f9 b7 3c f3 78 37 3c f1 9d 1e bb
       0.0034089913 0.022457825 0.01119827 -0.0024203027
0000d0 09 44 b2 3b a6 a5 a2 bc 8d 80 90 3a 1f ad 69 bc
       0.0054402393 -0.019854378 0.0011024639 -0.014262467
0000e0 b2 16 59 3c f5 44 17 bc 90 d9 da bb 2e 33 d5 bb
       0.01325004 -0.009232749 -0.0066787675 -0.0065063452
0000f0 19 cd 35 3c 08 28 aa bb b7 7d 99 bb 5d 30 26 3b
       0.011096262 -0.0051927604 -0.004684176 0.0025358417
000100 30 f3 e5 bb ca fa 64 3c c2 4a 06 3b 3e 73 4f 3c
       -0.0070175156 0.013975808 0.0020491336 0.012661753
000110 b4 79 0a bb 11 4a d6 3b 18 59 32 ba d6 a4 0b b9
       -0.002112967 0.006539591 -0.0006803437 -0.00013317479
000120 ff a3 6e bb a4 06 67 3c b0 76 09 3c 5c 8e 11 bc
       -0.0036413667 0.014100704 0.008390114 -0.008884039
000130 33 9b 3a 3c 0e 7d 2a bc 7b 27 de bb a7 9a 9c 3b
       0.011389541 -0.010405792 -0.006779609 0.004779178
000140 cb eb 19 bc 32 d9 95 3c 7c fd af 3b 3f e2 20 bc
       -0.009394596 0.018292043 0.005370794 -0.009819566
000150 f8 57 55 bc e0 ec e7 bb 48 84 df 3a 0c 7f 72 bc
       -0.013021462 -0.0070777982 0.0017052973 -0.014800798
000160 91 9b 0a bc e9 df 27 bc b0 43 86 bc 96 50 ec b9
       -0.0084599415 -0.010246255 -0.016389698 -0.0004507347
000170 f6 e2 45 bc 0a 71 d6 3b 84 69 84 bc 2f 48 87 3a
       -0.0120780375 0.006544237 -0.016163595 0.0010321195
000180 8c aa 46 bc 68 a0 fc bb d3 77 70 3c 2a 68 90 b9
       -0.0121256225 -0.0077095516 0.014677006 -0.0002754343
000190 f0 78 b3 bc a3 80 ef 3a 20 a5 6d 3c e5 78 00 bb
       -0.021908253 0.001827259 0.014504701 -0.0019603309
0001a0 44 9a 1e bc da 0f 05 3c b0 b1 7b bb 93 fa 3b 3c
       -0.0096803345 0.008121455 -0.003840547 0.011473316
0001b0 03 cd 47 bc d8 d9 a9 bb ca 92 d5 3b 2c e7 3c bb
       -0.012194875 -0.0051834397 0.0065177428 -0.0028824313
0001c0 8d a3 85 3a 91 26 c3 bb 6a fe 11 bc 3f f2 40 bc
       0.0010195837 -0.005955525 -0.008910755 -0.011776506
0001d0 af d8 29 bc 31 3d 36 3c 0e 59 86 bc 1e f7 f0 ba
       -0.010366603 0.011122988 -0.016399886 -0.0018384194
0001e0 15 29 8f bc 46 4b 76 bc b7 c5 e7 3b 5d d7 0b bc
       -0.017475644 -0.015032595 0.00707313 -0.008535233
0001f0 00 c6 60 3c 2f b8 08 bc c9 57 9c 3c 72 14 48 bb
       0.013719082 -0.008344694 0.019084828 -0.0030529764

conv3.lin.weight f4 [128, 128]
000000 c9 17 8f bc 3e 14 fc 3c f2 43 9c bc a4 ab 7f bd
       -0.017467396 0.030771371 -0.019075368 -0.06241955
000010 95 1c 17 bd 41 24 0e be ca 87 25 bb 70 c9 d4 3d
       -0.036892492 -0.13881017 -0.0025257939 0.10389984
000020 9b 78 c9 bc ce 03 be 3d a9 f2 a1 bd 48 8e 55 bc
       -0.024593642 0.092780694 -0.07907612 -0.013034411
000030 6f b2 19 bd 71 0c e5 3d 63 b8 06 be 09 5e 30 3d
       -0.037523683 0.11184014 -0.13156275 0.04305843
000040 9b 55 17 3e cb 49 94 bd 24 2f 05 3e 56 e1 ea 3d
       0.1477875 -0.072406374 0.13006264 0.11468761
000050 da 13 e9 bd 07 2c 33 3d f4 5a 01 3e 25 7c 68 3d
       -0.113807395 0.04374316 0.12632352 0.05675902
000060 9e 55 01 be be 6d 87 bd b5 ee 92 bd 60 98 ba 3d
       -0.12630317 -0.066127285 -0.07174436 0.091110945
000070 4f 55 1e 3c 06 4e c1 3d f9 3f 03 bd 99 d5 ff 3d
       0.009663894 0.0943871 -0.03204343 0.124919124
000080 72 75 89 3c 73 3d 87 3d 82 71 ad bd 6c 60 e8 3d
       0.016779635 0.066035174 -0.084689155 0.11346516
000090 e1 d5 21 bd 0e 62 eb bd 31 20 dc 3d 06 3d 0d be
       -0.03951061 -0.11493312 0.107483275 -0.1379281
0000a0 01 38 16 3d 10 93 09 3e f5 33 4d 3d cc 80 5a 3d
       0.036674503 0.13435006 0.05009838 0.053345487
0000b0 74 89 b3 bd dc 26 b3 3d b7 b4 d6 bd 42 b5 6f 3d
       -0.087664515 0.08747646 -0.10483687 0.05852247
0000c0 b9 a5 65 bd 53 ad 60 3d 71 7c 22 3e 07 67 bc bb
       -0.05606625 0.054852795 0.15867783 -0.0057495865
0000d0 76 24 fb 3d a7 ce d3 bd 8f 61 9f 3d 1f 51 a8 bc
       0.12262814 -0.1034215 0.0778228 -0.020546494
0000e0 dc 8c 31 3c 16 3b e1 3d 40 60 ec 3d 16 ea 2b 3d
       0.010836806 0.10997598 0.11541796 0.04197129
0000f0 d7 1c 43 3d be 22 1f 3d 92 5b 07 3e 60 b5 1d 3c
       0.047634926 0.038851492 0.13218525 0.009625763
000100 e6 4b 13 3d d5 fa 00 be 11 2e be 3d 21 5d 46 3d
       0.035961054 -0.12595685 0.0928613 0.04842866
000110 fb 1b 36 bc 13 e7 e4 bc 47 ca 0a 3e 4f ec 6f 3d
       -0.0111150695 -0.027942216 0.13553725 0.05857497
000120 46 cd 49 bd 5c 55 00 bd ed 0f dd bd 09 df 1a bd
       -0.04926803 -0.031331405 -0.10794053 -0.03781036
000130 7e ab f8 bd 57 c0 42 3d 07 6e f7 3b fd 50 f1 bd
       -0.121420845 0.04754671 0.007550958 -0.117830254
000140 b8 b3 ea 3d 41 cd 81 bc 41 43 09 3e 27 03 1b bd
       0.1146006 -0.015844943 0.13404562 -0.037844803
000150 c5 40 e0 bd 64 49 82 3c 4d bc 14 be 2a 6a c3 3d
       -0.10949854 0.015904136 -0.14524956 0.095417336
000160 04 5e 8d 3c e0 c8 46 bc 18 22 c7 3d ca a0 b5 3d
       0.017256744 -0.012132853 0.097233 0.08868559
000170 24 94 0a be bf 1c 9f bc 87 15 fc 3d 4b 4a a0 3d
       -0.13533074 -0.019422887 0.123087935 0.0782667
000180 9c 16 06 3d e0 e4 a0 bd da 79 f0 3d 6d c6 ef bd
       0.032736406 -0.078561544 0.11741991 -0.117077686
000190 10 2f 60 bc 18 14 f5 bc 4a 37 11 3e 63 82 2a bd
       -0.013683096 -0.029916808 0.14181247 -0.041628253
0001a0 75 c8 9f 3d c7 33 67 bd 56 28 9b 3c 6d b0 12 3d
       0.07801906 -0.056445863 0.018940132 0.035812784
0001b0 22 24 43 bc f0 b2 07 be 01 00 b4 bd 07 e4 05 be
       -0.01191047 -0.13251853 -0.08789063 -0.13075267
0001c0 28 f0 2c bc 6f 20 0d 3e 85 58 f0 bd 43 3d fb bd
       -0.010555305 0.13781904 -0.11735634 -0.12267544
0001d0 4f 52 f9 bd 6d 66 c9 bd 12 15 7e bd 64 d2 f6 3c
       -0.12173902 -0.09833989 -0.062031813 0.030129619
0001e0 59 06 10 3d d6 d8 ff 3d b1 40 c6 bc 30 da c8 bd
       0.035162304 0.1249253 -0.02420077 -0.09807241
0001f0 65 e4 da bd bb 2f 94 bc a0 17 c2 bd 9c 58 f5 bd
       -0.10688094 -0.018089166 -0.09477162 -0.119797915
000200 ec 80 ea bd 17 05 99 3d 5f 0a 16 bd 73 c8 cf 3d
       -0.11450371 0.07471674 -0.036630984 0.101456545
000210 a9 c7 ba bd 9c 56 96 3d 9a e3 12 3e 37 07 73 3d
       -0.091201134 0.07340738 0.14344636 0.059333052
000220 00 a6 04 3d 46 e7 2f bd 69 72 f2 3d f5 cc 3c bd
       0.032384872 -0.04294517 0.11838228 -0.0460939
000230 91 6d ce bb 06 d4 db bd 30 b7 09 3e 2e fb 1a 3d
       -0.0062996824 -0.107338 0.13448787 0.0378372
000240 3c 82 f3 bd c7 5b 37 3d 88 f5 ae bd b6 1c 06 3e
       -0.118900746 0.04476526 -0.08542925 0.1309689
000250 87 39 bf bd 4f dd 0c 3c bc 8d fe bc 79 54 b4 3d
       -0.09337144 0.008597686 -0.031073444 0.088051744
000260 24 cf fd bc c6 1f a0 bd 46 69 f8 3d b8 ef ff 3d
       -0.030982561 -0.0781856 0.12129454 0.124968946
000270 75 ad 02 3e 8e a6 1e 3e 9a 33 34 3d ef a6 d2 bc
       0.12761481 0.15493223 0.043994524 -0.025714366
000280 cb 57 5e bc 22 4c ba bc 39 1f 43 3d 72 ef f1 3d
       -0.013570736 -0.022741381 0.047637198 0.11813249
000290 37 c7 84 bd b9 b9 a1 bb 2a 6c 4d 3d 34 b0 e8 3d
       -0.0648331 -0.00493547 0.05015198 0.11361733
0002a0 57 2d a1 3d 08 0a f0 bd 0e 79 da 3d 65 7b 1a 3e
       0.07869976 -0.11720663 0.106676206 0.15086134
0002b0 85 08 fe bd 95 b2 14 bd 3b 34 8e 3d 41 72 b3 3c
       -0.12403969 -0.03630312 0.06943556 0.021905066
0002c0 35 68 0b 3e 96 ed ea bd 37 b0 1d be 8f f2 99 bc
       0.1361397 -0.11471097 -0.15399252 -0.018792419
0002d0 aa 0e e5 bd fd ec ef 3d 93 2a 01 be 24 ae 3b 3d
       -0.111844376 0.11715124 -0.12613897 0.04582037
0002e0 94 44 84 3d 2b 2f 07 be 5b 33 94 3c 4f ab b3 3d
       0.06458393 -0.13201587 0.018090894 0.08772909
0002f0 92 25 70 bd 7d 81 d5 3d 40 b3 8c bd 45 7f 9d 3c
       -0.05862958 0.104250886 -0.06870127 0.019225726
000300 36 cc 62 bd 92 86 f1 bd 1d b0 d0 3b ff 10 f7 3d
       -0.055370532 -0.117932454 0.0063686506 0.120637886
000310 f1 2b b0 3d c6 0f 15 be e5 17 0b be 7b 7c 2d 3d
       0.08602131 -0.14556798 -0.13583334 0.042355042
000320 99 96 f8 bd cc 49 aa 3d 10 e7 6b 3d 5f d9 b3 bd
       -0.12138099 0.08314857 0.057593405 -0.087816946
000330 90 17 de bd e3 e6 52 3d a2 91 e3 3d 9f 11 25 bd
       -0.10844338 0.051489722 0.11111762 -0.040300008
000340 53 f9 a4 3d 66 4b 76 3d 3d 2b 17 3d 35 36 14 be
       0.08055367 0.0601305 0.03690647 -0.14473803
000350 ce 2e d2 bd 61 22 bd bd 91 0c 63 3d fb 3a b6 3d
       -0.102628335 -0.09235073 0.055431906 0.088979684
000360 f7 3d a0 3d a3 12 00 3e 8a 90 d5 bb 7f 53 82 bd
       0.07824319 0.1250711 -0.0065174745 -0.06363582
000370 89 ff c3 bd ee 54 c4 bd e9 5d 8b bc fe 2b 08 bd
       -0.09570224 -0.095865116 -0.017012553 -0.03324508
000380 6c 27 a4 3d fe b4 f3 bd 55 24 f2 3d fb 82 1d be
       0.080153316 -0.11899756 0.11823336 -0.15381996
000390 0a 06 51 3d 92 36 f8 3d 1f fe af 3d c1 52 1a 3e
       0.05103115 0.121197835 0.085933916 0.1507063
0003a0 8e 09 c1 bd b2 33 8a 3d ff 69 15 3e 24 89 65 bd
       -0.094256505 0.06748141 0.14591216 -0.05603899
0003b0 ec 01 89 3d 91 8d 16 bd ce e6 24 3c 99 51 fc bd
       0.0668982 -0.036756102 0.010064794 -0.12320251
0003c0 56 81 65 bd fe 94 00 3e c4 2e cf bd d5 45 48 3d
       -0.056031547 0.12556836 -0.10116342 0.048894722
0003d0 ba e5 0b be 37 30 03 bd 16 5e 8c bd be 44 84 3d
       -0.13661852 -0.032028403 -0.06853883 0.06458424
0003e0 0f 25 8b bc b1 dc d0 bd cc 05 45 bc f8 29 17 3e
       -0.016985444 -0.101983435 -0.012025308 0.14762104
0003f0 62 31 ad 3d f6 70 b6 3d 00 02 cf bd f2 d8 97 bd
       0.08456685 0.08908264 -0.10107803 -0.07414426

out.weight f4 [128, 128]
000000 7e 0a d7 3c b2 bd ad 3d 10 bc 6f bd 9a 6b 50 bc
       0.02625012 0.08483447 -0.05852896 -0.012720967
000010 df 93 07 3c b2 30 f1 bc 93 55 90 3c 28 aa b1 bc
       0.008275001 -0.029442165 0.01761893 -0.021687582
000020 3a fe 2b 3d 59 d1 34 bd 41 1c 0f 3d be 54 2d 3c
       0.041990496 -0.044144962 0.034939054 0.010579286
000030 0b 3a 98 3d 05 b9 94 3d 94 12 4e bd e6 e8 13 3b
       0.07432946 0.07261852 -0.050310686 0.0022569238
000040 3c 8c d9 bb be c1 0e 3d 6b 73 80 bd ce b2 06 bd
       -0.0066390317 0.034852736 -0.06272014 -0.032885365
000050 97 c4 a6 bc fa 04 ad 3d 3a 4e 27 bc 1a 1e 3e bb
       -0.020357413 0.08448215 -0.010211522 -0.002900964
000060 98 0a 21 bd e7 2d 40 3c 70 63 99 bc f5 4a 07 bd
       -0.039316744 0.011729694 -0.018724173 -0.03303047
000070 57 4e ad bd 5c 30 ac 3b 0d c4 a7 bc 8b eb c6 3c
       -0.08462208 0.0052547883 -0.020479226 0.024282238
000080 af b3 a5 3d 1e 10 44 bd 08 58 4d bc 63 cc 79 3b
       0.080909126 -0.047866933 -0.012533195 0.0038116209
000090 17 cd 04 3c 2c c2 b1 3c 06 72 ad 3c 32 e6 2f 3d
       0.008105538 0.021699034 0.021172535 0.04294414
0000a0 53 9b 26 bd 63 00 4b bc 3c aa b0 3d ad 89 35 3d
       -0.040675472 -0.012390229 0.0862622 0.04432075
0000b0 98 a7 78 bd 0c df 3c bc c3 5c 85 3d 45 e7 9c bd
       -0.060706705 -0.011527788 0.065118335 -0.07661299
0000c0 07 d4 83 3b a4 43 2d bd cf d2 5b bd d3 13 5c bd
       0.0040230784 -0.042300835 -0.05366784 -0.053729843
0000d0 75 02 8b bd 62 7c 93 bd 64 78 69 bd 43 9a db 3b
       -0.06787578 -0.072014585 -0.05699958 0.006701739
0000e0 f3 09 6a bd 7d 60 20 bc 05 8c 7c 3c 41 f0 81 bd
       -0.057138395 -0.00978863 0.015414243 -0.06344653
0000f0 28 a7 28 3d 03 07 68 3d 9a fb 84 3d 5d fb 72 bd
       0.041175038 0.056647312 0.06493302 -0.05932175
000100 31 d3 87 bd 30 fb ac bd 49 94 76 3d 3d f1 05 3d
       -0.066320784 -0.08446348 0.06020001 0.032700766
000110 07 33 94 bd 2d 1e ca bc 77 2b 2a bd 15 a0 90 bd
       -0.07236295 -0.024672592 -0.041545358 -0.07061783
000120 36 26 12 bd bc 16 9f bb 40 35 86 bd f7 42 1d 3b
       -0.035680972 -0.004855005 -0.065531254 0.0023996213
000130 cb 44 7b bd d0 7d 5d bd 05 72 07 3d b8 a8 3b bd
       -0.061344903 -0.054075062 0.033067722 -0.0458152
000140 10 48 af 3d b1 5c 80 3d b1 48 28 bc e1 fc 9b 3d
       0.08558667 0.062676795 -0.010271237 0.07616592
000150 65 b0 b4 3c 42 ec 9f bd 5b d1 c9 3c bd 1d b3 bd
       0.022056768 -0.078087345 0.024635961 -0.087459065
000160 e9 40 86 3d 5d e0 9e 3c d2 a6 91 3a c7 75 2a 3c
       0.065553494 0.019394094 0.0011112338 0.010404057
000170 a1 c2 68 3d 24 fb 7f bd 94 3f 00 bd de bf 8c 3d
       0.056826238 -0.062495366 -0.031310633 0.06872533
000180 e6 bf 34 bd 49 b0 10 bd 64 b4 fa bc 7d a7 80 3d
       -0.04412832 -0.03532437 -0.030603595 0.06281946
000190 3c c0 27 bd 08 4d 22 3d 99 58 98 3d ad 63 85 bd
       -0.040954813 0.039624244 0.07438774 -0.06513152
0001a0 0c 7d 8a bd 2e be 28 bd 4a c2 63 bd 23 41 0f bd
       -0.06762132 -0.041196994 -0.05560521 -0.03497423
0001b0 d5 15 5e 3d dc 35 64 bd 2a 3b a7 bd b1 e3 a2 bd
       0.05422004 -0.055715427 -0.081655815 -0.07953585
0001c0 c6 ad 8c bd 9d 65 99 bd b6 67 95 3b 7c 40 71 3d
       -0.06869082 -0.07490084 0.0045594824 0.058899388
0001d0 31 8c 41 bd 87 ee 5c bc 85 6a 83 bb 1b 77 cc 3c
       -0.047252838 -0.013484604 -0.004010501 0.024959138
0001e0 a6 48 12 3d 75 02 d0 ba ca 16 86 bd 96 04 3e 3d
       0.035713814 -0.0015869873 -0.065473154 0.046391092
0001f0 1f 16 be 3a 21 3a 38 bd e3 ba 85 3b 95 8a 51 3c
       0.0014502442 -0.04497731 0.0040811165 0.012789388
000200 a9 a4 0f 3d b7 f4 b7 bd 1b 58 0a bd e2 96 98 bd
       0.03506914 -0.089822225 -0.03377543 -0.074506536
000210 be 4b 75 3c ba 3f 93 3c 14 32 a5 3d 50 a0 2f 3d
       0.014971672 0.017974723 0.08066192 0.042877495
000220 05 cb a3 bd bc 14 9c 3d 34 b6 8a bc ea 4b a4 bd
       -0.07997707 0.07621142 -0.016932584 -0.08022292
000230 31 ab 25 bd 60 7b 52 3d ed 9e 36 bd d4 3a 61 bd
       -0.040446464 0.05138719 -0.044585157 -0.054987743
000240 a3 4f f6 bc d9 50 55 bd d9 06 95 bd 14 6c 92 bb
       -0.03006727 -0.052079055 -0.07276697 -0.0044684503
000250 9d 36 62 bd 55 c6 86 3c 92 13 94 bd 6d 1d 85 3d
       -0.055227865 0.016451994 -0.07230295 0.06499753
000260 f2 ec 87 3d f7 41 18 bd eb 1d 6c bc bd dd 23 3c
       0.066369906 -0.037172284 -0.01441143 0.010001597
000270 a0 90 0c 3d 8d 85 50 bd a1 3a 93 bd 85 f4 07 bd
       0.034317613 -0.050908614 -0.07188917 -0.033192176
000280 05 d5 2c 3d cd cd 95 3d 55 7a 30 bd 32 ba 68 bd
       0.04219534 0.07314644 -0.043085415 -0.056818195
000290 54 b8 8a 3d dd f8 11 bc 09 92 b1 bc 5c fd 0d bd
       0.06773439 -0.008909431 -0.02167608 -0.03466545
0002a0 56 dc 60 3d 1e 9f 1a bd 2e a8 1a bd 4f ee 06 3d
       0.05489763 -0.037749402 -0.037758045 0.032942113
0002b0 25 94 88 3c d9 57 ab bd 4a e1 28 3d 29 f7 04 bd
       0.016672203 -0.08366365 0.041230477 -0.032462273
0002c0 f6 40 4f 3d 4e f7 bc bc 2a bc 0e 3b 29 ed 70 bd
       0.05059906 -0.023067143 0.0021779635 -0.058819924
0002d0 31 ec 52 3d c4 3e a7 bd c6 81 9c 3d f1 c7 13 3c
       0.05149478 -0.081662685 0.0764194 0.009019838
0002e0 63 b4 b0 3b f3 16 6e bd af ff 90 bd 15 bf 0a bd
       0.0053925975 -0.058127355 -0.07080018 -0.033873636
0002f0 d0 11 3a 3d 3a c0 29 3c d7 fe 53 bc 2f dc 25 bd
       0.045427144 0.010360772 -0.0129391765 -0.040493187
000300 63 ff 8d bd a8 a8 55 bd e8 29 b5 bd 78 2a b4 bc
       -0.06933477 -0.052162796 -0.088458836 -0.021992907
000310 ea 3f 10 3d 09 3e b9 3a 6f 74 7d bd 14 e3 44 3c
       0.035217203 0.0014132868 -0.061878618 0.01201703
000320 cc a0 6b bb 0c 46 b7 3c 8e 22 45 bd 72 c2 b2 3d
       -0.0035953997 0.022372268 -0.048128657 0.08728494
000330 e7 3b ae bd d1 93 96 bd 1e 2b 5a 3b f6 7f 87 bb
       -0.08507519 -0.073524125 0.003328986 -0.004135127
000340 50 dd 0a bd 18 ae 14 bd 96 58 0f bd 14 a7 2c bd
       -0.033902466 -0.03629884 -0.03499659 -0.042151526
000350 df ec 98 3d a0 28 4d 3c a8 23 4c 3d fc f3 8c 3d
       0.074670546 0.012521893 0.049838692 0.06882474
000360 29 34 76 bd d2 a5 2a bd ef 3c 22 3c fe d7 91 bd
       -0.060108338 -0.041662045 0.009902223 -0.07121275
000370 ad 18 03 bd 9e 7e 2d bd ff f4 38 bd c7 ea 90 bd
       -0.032005955 -0.04235708 -0.04515552 -0.0707603
000380 ff 15 68 3d 8f cc 70 bc 58 b3 10 3d 7a c3 34 bd
       0.056661602 -0.014697208 0.035327286 -0.044131733
000390 1a 34 ac 3d 39 c9 48 bd ee 14 0c 3d 1d 26 a8 3d
       0.08408375 -0.049020026 0.034199648 0.082103945
0003a0 60 f2 2e bd 1a e0 24 bd 66 33 b5 3c ab fa 61 3d
       -0.042711616 -0.040252782 0.022119235 0.055170696
0003b0 d9 f4 d8 3c 06 54 22 bc 84 28 85 bc 11 37 53 3d
       0.02648394 -0.009907728 -0.01625467 0.051566187
0003c0 47 16 f8 3b dc 7b aa bd ac 9a 26 3d d5 a3 91 3d
       0.007571015 -0.083244056 0.04067485 0.071113266
0003d0 c0 2f dc bc 76 81 84 3c 74 ec 62 3d 65 f4 e9 bb
       -0.026878238 0.016175013 0.05540128 -0.00713973
0003e0 e9 28 b8 3c 9d 20 38 bd 32 12 24 3d 88 10 a5 bd
       0.022480445 -0.044952977 0.040056415 -0.08059794
0003f0 47 37 03 bb 8a 2f 0e bd a7 ce 98 3d 2a 0e 92 bd
       -0.0020021962 -0.034713306 0.07461291 -0.07131608

out.bias f4 [128]
000000 85 ce 0a 3d 00 f9 4d bd d8 8a 1b 3d c2 6f a7 bd
       0.03388836 -0.050286293 0.03797421 -0.08175613
000010 cf 65 91 bc ac 52 4b bd f3 0d aa bc d3 1c bd bd
       -0.017748741 -0.04963939 -0.020758605 -0.092340134
000020 a2 fd 26 bc 6f 0b c2 bc f4 4a 8b 3d 84 73 82 3d
       -0.010192307 -0.023687093 0.068014055 0.06369689
000030 23 ce 84 3d 13 a7 0f 3d 47 8c 8e 3d 2e 56 b2 bd
       0.0648463 0.035071444 0.069603495 -0.08707844
000040 ef 04 26 3d 11 67 96 bd 92 2a e4 bc 59 d1 50 bc
       0.04053205 -0.07343877 -0.02785233 -0.012745225
000050 e0 9b 55 bd c1 1c f7 bc 3d b2 87 bd 78 19 84 3d
       -0.052150607 -0.030165078 -0.06625793 0.0645017
000060 b7 a6 e6 bc 57 bb 03 3d ad 01 9b bd 7d e2 1c bd
       -0.028155668 0.032161083 -0.07568679 -0.038301934
000070 fe d8 0a 3d d3 44 5e 3d 9c 89 1b 3c c3 fa 16 3d
       0.033898346 0.054264855 0.009493258 0.03686024
000080 a9 28 a7 bd 86 7c f5 bc 44 73 95 3d b5 22 36 3d
       -0.08162052 -0.029966604 0.07297376 0.044466693
000090 ff 4c ff 3c 17 d7 cf bc 87 55 8c bd a3 59 2f bd
       0.031164644 -0.025371118 -0.068522505 -0.042810094
0000a0 91 07 6b bd 2e 7a bb bd bd 60 34 bd a8 f9 bf bd
       -0.057380263 -0.09154163 -0.04403757 -0.0937379
0000b0 68 56 68 bd 7c 7d 72 bd 65 73 4e 3d 20 65 99 3d
       -0.05672303 -0.059201702 0.050403018 0.07489991
0000c0 71 e0 91 bc 3a 09 80 3d 6f cb c0 bc c6 55 ee bc
       -0.017807217 0.0625176 -0.023534505 -0.029093634
0000d0 98 56 a0 bc 0a 65 a1 3d a5 9e d4 bc 80 17 b1 bd
       -0.019572541 0.078806 -0.025954554 -0.086470604
0000e0 ac 5d 12 3c a4 79 b1 bd 0a 58 a1 3d 19 75 b8 bd
       0.008933466 -0.08665779 0.0787812 -0.090067096
0000f0 df 91 56 3b 34 89 0d bd 84 c9 c4 3d 54 c4 a0 bd
       0.0032740755 -0.034554675 0.096087486 -0.078499466
000100 42 96 bf bb 8c 18 ad 3c 01 9b 91 bd ea 93 ac bd
       -0.0058467695 0.021129869 -0.07109643 -0.0842665
000110 2a ad 07 bd 5c 79 38 3d fc d1 0f 3d d8 51 a0 bd
       -0.033124126 0.045037612 0.035112366 -0.078281105
000120 10 8f 86 bd 26 76 d2 bd dc 67 10 bd cd 39 81 3d
       -0.06570256 -0.10276441 -0.035255298 0.06309853
000130 2b 13 3c bd b5 5a 30 3b 82 ce 61 3d b8 42 0b 3d
       -0.045916717 0.0026909534 0.05512858 0.033999175
000140 cd 49 0a 3d f3 7c 96 bc b0 d9 28 bc a8 e1 93 bd
       0.03376179 -0.018370127 -0.010305807 -0.07220775
000150 79 7e 4a 3d 31 01 f6 bc c7 f1 3e 3c 62 51 83 bd
       0.04943702 -0.030029865 0.011654324 -0.06412007
000160 63 24 fe 3b 08 9f ce bb 5c 6d 33 bd 1e a3 5a bc
       0.0077558025 -0.006305579 -0.043805465 -0.013344554
000170 10 36 0c bb 2f 87 13 3d b5 78 8a bd cc 0b 6a 3c
       -0.0021394528 0.036017593 -0.06761304 0.014285039
000180 fa f7 ae bc 1f 05 08 3d 8b 83 61 bd 93 4c ee bc
       -0.021358479 0.03320801 -0.05505709 -0.029089248
000190 ff fd fa 3c 46 19 91 bc fd 24 cf 3d 4d bf 39 3c
       0.030638693 -0.017712247 0.10114477 0.011337114
0001a0 c7 b3 57 bd a7 bd f9 bc 2c f2 e3 bc 65 0d 9c bc
       -0.052661683 -0.030485941 -0.027825437 -0.019049356
0001b0 4f 8d 31 3d 5b e8 cb 3d 06 8c 30 bc 14 01 62 bd
       0.043347653 0.09956428 -0.010775572 -0.05517681
0001c0 dc c2 62 bc 1a 67 c2 38 c1 2a 4c 3d 86 f9 42 3d
       -0.013840403 9.269845e-05 0.04984546 0.047601245
0001d0 68 13 a9 3d c6 1f b2 3d 2d d2 80 3d a5 08 44 3d
       0.082556546 0.086974666 0.06290088 0.047859807
0001e0 26 c2 ce bb b1 39 82 3d 79 fb fa 3c ad 0e 91 3c
       -0.0063097654 0.0635866 0.03063749 0.017707193
0001f0 f7 46 cd bd 08 52 a3 3d 33 7d 21 3d 56 b3 79 bd
       -0.10023301 0.079746306 0.03942604 -0.060962044
